model/model.tflite (tflite, 165428 bytes, 10 tensors)

sequential/conv2d/BiasAdd/ReadVariableOp/resource f4 [16]
000000 cc 84 c0 3a 0c 0e 17 3d 82 98 9b 3b d1 b8 ea 3b
       0.0014688014 0.03687863 0.004748405 0.007163145
000010 ca 0c af bc e8 04 79 3c f2 36 d1 3c 70 34 e1 3b
       -0.021368403 0.015198924 0.025538895 0.006872706
000020 8a 82 30 bc 09 7b 38 bc 8c 60 16 3d 64 90 5f ba
       -0.01077331 -0.011259803 0.036713168 -0.0008528291
000030 c0 8a 63 bb 00 00 00 00 4a 51 37 bd 3e 85 be 3c
       -0.0034720153 0.0 -0.044755258 0.023256894

sequential/conv2d_1/BiasAdd/ReadVariableOp/resource f4 [16]
000000 d0 c3 39 bc 7c 0b eb bb c0 ec 88 bd c6 5a 95 3a
       -0.011338189 -0.007173 -0.066857815 0.001139485
000010 0f 98 d5 bc 9f 8d ea 3c ec 6b 97 bc 0d 0a e3 bc
       -0.026073484 0.028631983 -0.018484078 -0.027714754
000020 d6 30 93 bd 5a db 18 3a e1 29 13 bc c3 b4 3e bc
       -0.07187049 0.0005831026 -0.008982153 -0.011639777
000030 4f c1 e3 38 af 39 8b 3b 13 a6 e6 bc 81 73 1a 3c
       0.0001086021 0.00424882 -0.028155362 0.009426952

sequential/conv2d_2/BiasAdd/ReadVariableOp/resource f4 [32]
000000 5e 27 d9 bb 43 aa f3 bb 18 c5 00 bd 8f c6 d0 bc
       -0.0066270074 -0.0074360683 -0.031437963 -0.025485305
000010 d6 7e 26 bd d3 ea 2f 3d 22 97 fc bb 15 b2 09 3d
       -0.040648304 0.042948555 -0.007708446 0.033617098
000020 ad cf f8 3c 00 00 00 00 b1 37 33 bd c5 69 16 3d
       0.030372465 0.0 -0.043754283 0.036721963
000030 e3 c2 0e bc 13 aa b7 bc 6a f1 ea bc 42 c5 41 bc
       -0.008713457 -0.022419965 -0.028679568 -0.011826815
000040 34 c2 1f 3c d7 3b bf bb c4 ef ac bc 2e f1 20 3c
       0.0097508915 -0.005835991 -0.021110423 0.009823127
000050 a6 f2 d2 bb 82 57 01 bd 0a ff 9e bc 23 4a 8f bc
       -0.0064376174 -0.031577595 -0.019408721 -0.017491406
000060 28 32 a9 3c f9 38 bc bc ff 3a b4 bc 3f 2c 6b bc
       0.0206538 -0.022976385 -0.022000788 -0.014353811
000070 63 55 a2 3b 1c bd 94 bc bc e0 40 3d e1 7f f2 bc
       0.0049540265 -0.01815658 0.047089323 -0.029601993

sequential/dense/BiasAdd/ReadVariableOp/resource f4 [64]
000000 b2 97 ce 3c 01 7f 39 bc 19 21 75 bd f5 d2 14 3c
       0.025218818 -0.011321784 -0.059846018 0.009083499
000010 93 be 35 3c d1 b3 21 3c 64 56 06 bc e1 d3 2e bd
       0.0110928 0.009869532 -0.008199308 -0.042682532
000020 ab 1c 02 3d 97 74 66 bb 8a 1a 68 3d c3 e4 1b bd
       0.03176562 -0.0035164708 0.056665935 -0.03805996
000030 6a 61 14 bc 24 cc 81 3c e0 84 73 3c 60 71 ce 3d
       -0.009056428 0.015844412 0.014863223 0.10080218
000040 d2 89 7c 3d 24 7a 63 bd 87 78 69 3d d3 6a 35 bd
       0.061654873 -0.055536404 0.05699971 -0.04429133
000050 58 ce 62 bd 70 f6 68 3d c8 10 05 3c f7 56 84 3d
       -0.055372566 0.056875646 0.008121677 0.064619
000060 a7 89 cb 3d 6f ce 58 bd f4 59 9d 3d 2f d7 a2 3d
       0.099383645 -0.052931245 0.07683173 0.07951199
000070 50 7c 99 3c be 3f 84 bd 4b 75 3d bc d5 6e 4f bd
       0.018736035 -0.0645747 -0.011563609 -0.050642807
000080 e3 81 5a bd 78 30 3b bd 2f c8 61 bd 1f 41 80 3d
       -0.053346526 -0.04570052 -0.05512255 0.06262421
000090 34 42 f3 bc 44 66 95 3d 9d e4 b9 bc 9c 27 99 3c
       -0.029694654 0.07294896 -0.02269202 0.018695645
0000a0 ec 37 76 bd ef dd 60 bd 18 a2 71 3c b3 e9 38 bd
       -0.060111925 -0.054899152 0.014748119 -0.045144748
0000b0 b3 6e a0 3c 97 95 5f bd a4 5b 4f bc ec 97 52 bd
       0.019584036 -0.05458602 -0.012656126 -0.051414415
0000c0 66 28 9f 3d b6 0a a9 3b 06 f4 f5 bc f0 65 8c 3d
       0.07771377 0.0051587475 -0.030023586 0.068553805
0000d0 00 a7 41 3c 3f 8f 88 3d c9 c2 01 3d f9 2c f6 bc
       0.011819601 0.06667947 0.031679902 -0.030050742
0000e0 f0 9b 30 bd c9 c4 10 bc 9d 5f 6f bc 22 76 9b 3d
       -0.043117464 -0.00883598 -0.014610198 0.075908914
0000f0 90 62 3b bd ac 8d 3c bb 85 07 a7 3d c0 30 92 3d
       -0.045748293 -0.0028770966 0.08155731 0.071382046

sequential/dense_1/BiasAdd/ReadVariableOp/resource f4 [3]
000000 30 fb e6 bb 11 00 87 3d 50 88 84 bd
       -0.007048987 0.065918095 -0.06471312

sequential/dense/MatMul f4 [64, 512]
000000 9d 4d 8a bd ba c9 24 bd 5c 9c 4c 3d 53 67 37 3d
       -0.06753085 -0.040231444 0.049953803 0.044776272
000010 8f c1 af ba b4 4e 9a 3d b5 46 fb 3c f3 49 86 3d
       -0.0013409125 0.07534543 0.030673364 0.065570734
000020 06 f2 21 3d 56 5b d0 3d ce 18 ed 3c 36 82 ed 3c
       0.039537452 0.10173671 0.028942492 0.028992753
000030 7d 0a 02 bd a5 36 23 bd 65 de f0 bc db 81 95 3c
       -0.031748284 -0.039847035 -0.029402921 0.018250396
000040 d7 91 03 ba b9 c5 be bd 14 ca d6 bb dc 2f d0 bd
       -0.0005018985 -0.09315056 -0.0065548513 -0.101653785
000050 f1 41 ed 3c cf e8 d4 3d 00 05 14 3d e6 28 90 bd
       0.028962107 0.10395967 0.03613758 -0.07039051
000060 c2 21 17 3d 2b 8b 66 bd 08 0a 59 bb c0 5c a1 bd
       0.03689743 -0.056285065 -0.0033117551 -0.07879019
000070 29 77 8f bd d7 d9 55 3d fc 22 8b 3d 15 3c 13 bd
       -0.0700515 0.0522097 0.06793782 -0.03594597
000080 1c df 9a 3d 1b 99 a5 3b ba 75 c3 3c 16 f8 3c 3d
       0.07562086 0.005053652 0.023859847 0.04613503
000090 0b 19 3c 3d 8e d4 09 3c 86 f1 c8 bc 6b 58 30 3c
       0.04592232 0.008412493 -0.02452923 0.010763268
0000a0 5d 4f 1a 3c 98 74 25 3c 8d 55 05 be c1 15 07 3d
       0.009418336 0.010098599 -0.13020916 0.03297973
0000b0 88 0d 52 3c 39 d7 a5 bd 5e 03 af bd 13 61 13 bd
       0.012820609 -0.08097691 -0.08545564 -0.03598125
0000c0 61 86 82 3d 82 e9 ad 3d 43 06 ce bd 27 d5 9c 3d
       0.06373287 0.08491804 -0.10059788 0.07657843
0000d0 48 2e c4 3d 68 78 8b bd 04 73 e0 bc 47 37 74 3c
       0.0957914 -0.06810075 -0.027398594 0.014905757
0000e0 6c b5 be 3c 00 ba a2 3d 68 9b f4 3c 8d ba 17 bc
       0.023279868 0.07945633 0.02985926 -0.009260786
0000f0 2e b0 12 3d ab 94 65 bd 42 f5 d0 bd 2b e8 ab bc
       0.03581255 -0.056049984 -0.10203029 -0.02098473
000100 2f e0 ca bd 82 f6 63 3d 41 86 2b 3c c4 39 98 bd
       -0.09906041 0.05565501 0.01046902 -0.07432893
000110 7b 77 43 bd 4e af b0 39 22 0c 8d bc 30 51 c6 3d
       -0.047721367 0.00033699948 -0.0172177 0.09683454
000120 5b 7b 82 bd 44 64 88 bd b2 eb 3d bb b8 98 3a bd
       -0.063711844 -0.06659749 -0.0028979597 -0.0455558
000130 1d 77 5d 3d 47 be a5 bc 99 0b c6 bd 5c 1f 8c 3d
       0.054068673 -0.020232333 -0.09670181 0.06841919
000140 09 74 a6 3c 17 5b 4b bd ec 52 77 3d 9b 68 dc 3d
       0.020319002 -0.049647417 0.060381815 0.107621394
000150 15 c4 8b bd c9 f6 92 bd 00 b0 f9 b8 ca 91 28 bc
       -0.06824509 -0.07175977 -0.00011906028 -0.010288665
000160 c6 e5 2f 3d a6 26 4b 3d 8a e6 ed 3c 69 cd c7 3c
       0.04294374 0.049597405 0.029040594 0.02438994
000170 ac 85 3b 3d 2e 11 41 bd 03 fd 75 bd c8 87 d1 bc
       0.045781776 -0.047135524 -0.060055744 -0.02557744
000180 a3 c3 95 3c 5e 47 d8 3c dd 5e 18 3d 2d 37 03 bd
       0.018281763 0.026401218 0.037199844 -0.03203504
000190 3e 2f 19 3c a5 c0 a0 3d 35 83 0c 3d 43 3e ce 39
       0.009349642 0.07849244 0.034304816 0.0003933777
0001a0 47 e8 19 bd 00 17 17 bd 61 5f dc 3d 64 4c 2c 3c
       -0.037575033 -0.03688717 0.107603796 0.01051626
0001b0 3e 5d f9 bc 47 b1 6d 3b 2f 56 33 bd b8 92 76 bd
       -0.03043997 0.0036268996 -0.043783363 -0.060198516
0001c0 07 97 0e bc ff 6f 11 3d ad 1c 19 bd 38 d9 01 3e
       -0.008703 0.0355072 -0.037380863 0.12680519
0001d0 f4 bd e4 3d c0 85 ab 3d f0 c0 43 3d fc 2e 35 bd
       0.11169043 0.0837512 0.04779142 -0.04423426
0001e0 46 bc d9 bb 29 dc 27 bc b8 54 de bd f1 21 9b bd
       -0.0066447584 -0.010245361 -0.108560026 -0.07574833
0001f0 4a 08 09 3d 47 24 88 3d e0 2f c8 bd 2a 40 b7 3d
       0.03345517 0.06647544 -0.097747564 0.08947785
000200 0f c4 b1 bd 11 77 6c bd 4b 99 5d 3d 42 0f fd bc
       -0.08679973 -0.057730738 0.05410127 -0.030891065
000210 9a aa d7 bc be 27 6f 3d 3d 67 e8 bd 32 dd d4 3d
       -0.026326466 0.05838751 -0.11347816 0.10393752
000220 01 4c 91 bd e9 91 ad bd 22 94 1d 3d e9 f4 02 be
       -0.07094575 -0.08475096 0.03847135 -0.12788738
000230 3b e0 7b 3d 38 64 89 bd bc b3 f8 3c 17 11 37 bd
       0.06149314 -0.06708568 0.030359142 -0.044694033
000240 0a 34 02 bd bb be 46 3d b9 e2 8f bd 55 99 02 3d
       -0.03178791 0.04852174 -0.07025666 0.03188451
000250 32 26 d4 3d a6 60 0f bc 14 93 ac 3d c0 43 92 bc
       0.10358848 -0.00875107 0.084264904 -0.017854571
000260 92 dd d0 bd 74 39 43 3d 7b 8b 0a bd 22 0a 04 bc
       -0.10198511 0.047662213 -0.033824425 -0.0080590565
000270 0e c6 4b 3d f2 71 fa bd c2 15 bc bc b6 33 19 be
       0.049749427 -0.122287646 -0.022959594 -0.14961132
000280 dc 95 b0 3d 78 8d 8a bd 21 3e c3 3c 95 22 93 3d
       0.086223334 -0.06765264 0.023833336 0.071843304
000290 dc 56 8f 3c 88 02 53 ba 43 f7 5b bd 29 e8 31 3d
       0.017497472 -0.00080493884 -0.053702604 0.043434296
0002a0 56 1c 5f bd 9d a7 9a bd b1 90 bd 3d 7b 8c 17 3d
       -0.054470383 -0.07551501 0.09256113 0.036999207
0002b0 7e 8f 9a bb b0 6f 1f 3d af 5d 80 3d 6e 1f 7b 3d
       -0.0047168126 0.038924873 0.06267869 0.06130927
0002c0 e4 61 d3 3d d3 31 de bc 6c 81 c7 3d 13 5e d7 3c
       0.103214055 -0.027123367 0.09741482 0.026289975
0002d0 26 fc 4e 3c be 42 4b bd d8 a3 01 bc 17 eb 82 3d
       0.012633359 -0.049624197 -0.007912599 0.06392496
0002e0 49 4e c2 3c 05 07 a7 bd db 27 3e bd 41 d1 e1 3c
       0.02371897 -0.08155636 -0.046424728 0.0275656
0002f0 80 0b cc 3d 9b 9d a1 bd 82 d6 c8 3d b2 f2 55 bb
       0.09963131 -0.07891389 0.09806539 -0.0032645878
000300 aa cc 96 3d a0 a1 ad bd e6 45 22 3d 1d 48 63 3d
       0.07363255 -0.08478093 0.03961744 0.055488694
000310 f3 30 fb 3c ad b0 8b 3d 9f ca b9 3d 40 d8 cb 3c
       0.03066299 0.068208076 0.0907185 0.02488339
000320 26 72 a3 3d b8 99 b6 bd 90 26 b0 3d 34 e7 b4 3d
       0.079807565 -0.08916038 0.08601105 0.08833161
000330 f7 46 05 3d e3 12 94 3d 9e 9a a4 3d 9d 38 a6 bd
       0.03253838 0.07230165 0.080373034 -0.08116267
000340 ee df d7 3d b8 69 70 3b 5f c9 37 bc 0e 88 3e bb
       0.10540758 0.0036684107 -0.011217444 -0.0029072794
000350 74 0f 4c bd a8 80 82 bd 6a fd f7 3c 0d 86 e1 3c
       -0.049819425 -0.063721955 0.030272204 0.02752974
000360 d0 9c dc 3d 30 35 e8 bc 81 36 24 bd 70 6e 9f bd
       0.10772097 -0.028345674 -0.04009104 -0.07784736
000370 c4 dd 1d 3d 05 38 98 bd ff bb 6e bb ac fe eb 3c
       0.03854157 -0.0743256 -0.0036427972 0.02880796
000380 55 1e e6 3d bc b7 40 bd c9 53 c5 3c 65 de ae 3d
       0.11236254 -0.047050223 0.024087803 0.08538512
000390 9c 81 22 3d 28 99 64 3d b3 e6 ac bc fd fd 00 3e
       0.039674386 0.055810124 -0.0211061 0.12596889
0003a0 65 57 81 3d e6 8b 37 bd 24 99 cd bb 38 76 08 3e
       0.06315497 -0.044811152 -0.0062743593 0.13326347
0003b0 28 f3 a0 3d 68 09 33 3d 62 3c f4 bc 68 b3 37 bd
       0.078588784 0.043710142 -0.029813949 -0.04484883
0003c0 bb bf 1d bd 0a 79 fe 3c 62 db ae bd bd 5c d2 3c
       -0.038512927 0.031063575 -0.08537938 0.025678987
0003d0 85 9f c5 3c 32 e4 92 3d 1f da b4 bc 75 1a 3d bd
       0.024123916 0.07172431 -0.022076664 -0.04616781
0003e0 3e 14 43 3d 73 94 63 bb 15 2f cd bd 3c d0 5e 3d
       0.047626726 -0.0034725934 -0.10018746 0.054397807
0003f0 54 95 6e bd ae 3f 52 3d ef 18 16 bd 08 90 7c 3c
       -0.05824788 0.05133026 -0.036644872 0.015415199

sequential/dense_1/MatMul f4 [3, 64]
000000 9e 6a 1e 3c 2a b9 81 3e 69 51 8f 3d c6 c0 95 3e
       0.009668974 0.2533658 0.0699795 0.29248637
000010 ed 7f 66 3e c3 24 4c 3d 0a 66 4c bd 53 ad ea 3d
       0.22509737 0.049839746 -0.049902 0.1145884
000020 0d 62 aa be dd e8 87 be 9b b1 a4 be 61 b9 4c 3d
       -0.33277932 -0.26544848 -0.32166752 0.04998148
000030 87 cf 6b 3e 61 1c 2b bc e7 be 34 3e 4d 96 0b be
       0.23028384 -0.010443778 0.17650948 -0.13631554
000040 e2 b0 7f 3e 64 73 98 be 28 ca 4c 3e 72 e5 97 be
       0.24969819 -0.29775536 0.19998991 -0.2966724
000050 b1 5a 86 be 53 e8 91 3e 3d 92 91 3d a3 9c 7b 3e
       -0.26241067 0.28497562 0.07107971 0.24571471
000060 2b 51 1d 3e ba b6 99 be 40 cd 78 3e ef 57 e3 bc
       0.15362994 -0.30022222 0.24297047 -0.027751891
000070 a8 46 00 3e 2b 3c f0 3c 57 e6 0e be 26 88 c3 bd
       0.12526953 0.029325565 -0.13955055 -0.09547453
000080 15 a1 5a be 27 d3 eb bd 7a a9 9f be 98 82 a2 be
       -0.2135051 -0.115148835 -0.31183988 -0.3174026
000090 89 f9 75 3e 67 4c 7f be ae 73 8c 3e 77 4b 8e bc
       0.24020971 -0.24931489 0.27432007 -0.017369969
0000a0 fa 51 86 be 46 24 e6 3d fd 98 3c 3e 62 fc 9a 3e
       -0.26234418 0.11237387 0.18417735 0.30270678
0000b0 fd 3c f7 bd a3 cb 3e 3e eb c7 8c bd 6b b4 a9 bd
       -0.120721795 0.18632369 -0.06874069 -0.08286365
0000c0 a8 27 31 3d e0 89 bc 3d ef 62 9a bd 9c cc 90 3e
       0.04325071 0.09205985 -0.07538401 0.28281105
0000d0 76 c9 4b 3e 74 eb dd 3d 29 96 8c be 09 c7 4d 3e
       0.1990107 0.10835925 -0.27458313 0.20095457
0000e0 20 b2 90 be ea 32 80 3e 53 76 87 3e 6a 32 3d 3e
       -0.282609 0.25038844 0.26457462 0.18476263
0000f0 a9 64 6b 3e 14 95 4a 3e c4 10 65 bd bb 40 8b 3d
       0.22987618 0.19783431 -0.055924192 0.06799456
000100 07 be 14 be 84 c7 8c be 58 b2 73 be 05 ff a1 be
       -0.14525615 -0.27495968 -0.23798501 -0.31639877
000110 5e e7 ec 3c 75 15 27 be f7 6a 24 3e 2c e1 f6 bb
       0.028918918 -0.16316779 0.16056429 -0.007534167
000120 99 4e 4d 3e a1 56 53 3e 1e a9 28 3e 6d 06 8e be
       0.20049514 0.20638515 0.16470763 -0.27739277
000130 52 d3 22 3d c6 bf af bd 10 ae 63 be 0b 9d 4e bc
       0.039752312 -0.085815 -0.22234368 -0.012610684
000140 b6 aa 91 3e e3 18 6e be 83 0f b7 bc 00 91 61 be
       0.28450555 -0.23251681 -0.022346264 -0.2202797
000150 d9 f5 2f be 80 e0 87 3e d7 4d 67 3e 2b 14 a0 3e
       -0.17183627 0.26538467 0.22588287 0.31265387
000160 f7 7b 8f 3e 36 08 1e be 8a b1 11 3e ae a2 5f 3e
       0.28024265 -0.1543282 0.14227882 0.21839401
000170 66 9a 9e be 9c 9a 88 bb c9 6c 55 3e 50 5a ac bc
       -0.30977172 -0.0041688215 0.2084228 -0.021039158
000180 8c 0e 3f be aa 31 90 be 69 2e 81 be a9 a6 90 3e
       -0.18657893 -0.2816289 -0.2523072 0.28252152
000190 02 9d 52 be c9 8c 01 3c 69 4f 89 be ae 34 cf 3d
       -0.20567706 0.007907101 -0.26818398 0.1011747
0001a0 fa 5a 8b be cd d4 a5 be 90 9b 78 be 20 8f 25 be
       -0.27217847 -0.32388917 -0.24278092 -0.16167879
0001b0 dd 5e 72 3e fa 3f 01 be bc ff 45 bd 0c e4 1c bd
       0.23669 -0.12622061 -0.04833959 -0.03830342
0001c0 04 94 8b 3e 2d 8d 02 be b2 42 e3 bd f2 4a ac 3e
       0.27261364 -0.12749167 -0.110967055 0.3365093
0001d0 c7 95 69 be 77 c5 86 3e cf 7a 17 3e af 2a 92 be
       -0.22811042 0.2632253 0.14792942 -0.2854819
0001e0 a5 96 3c be 6e c9 33 be cd 4e 95 be 09 57 98 3e
       -0.18416841 -0.17557308 -0.29161683 0.29753903
0001f0 fc af a1 bd 9a ed 61 be a0 fa 20 3e f5 9c 77 3e
       -0.078948945 -0.22063294 0.15720606 0.24180968
000200 a3 ae 47 be 6a b7 0d 3d 0d 80 89 3e 9d 02 66 be
       -0.19500212 0.034598745 0.26855507 -0.22461934
000210 fa 3e e0 bd dd 65 30 be ae b6 83 bd 61 70 8a 3d
       -0.10949512 -0.17226358 -0.06431328 0.06759716
000220 7a 6a c2 3d cc 3d 90 3e 64 15 5d bd db ab 2b 3c
       0.09492965 0.28172147 -0.053975478 0.010477985
000230 d2 ac 88 be 3f 08 9b bd 88 6c 08 be 80 c4 6e be
       -0.2669435 -0.07569932 -0.13322651 -0.23317146
000240 27 f9 0d be a3 76 47 3b 60 c5 98 be 01 6e fc 3d
       -0.13864575 0.0030435703 -0.29838085 0.12325669
000250 07 d5 58 3c e7 e9 5c be 28 bc 38 be ed 67 43 be
       0.013234383 -0.21573602 -0.18040526 -0.19082613
000260 ff f9 0f 3e 3c b5 82 3e 50 e9 6f be 5a 27 aa bd
       0.1406021 0.25528896 -0.23428845 -0.08308287
000270 7e 37 6d be 11 a8 9e 3e 4b 91 de 3d e4 03 e7 3d
       -0.231657 0.309876 0.10867556 0.11280039
000280 d1 01 db bc 72 8b d7 bd 1f da 24 be 4d c5 1f bd
       -0.026734265 -0.10524644 -0.16098832 -0.03900652
000290 fb 36 bb 3d 42 b0 98 be a0 4b fe 3d 01 13 9d 3d
       0.09141346 -0.29821974 0.12416768 0.0766964
0002a0 13 fc 21 3d 42 07 48 3e a0 1c 1d be 60 d7 7f 3e
       0.039547037 0.19534019 -0.15342951 0.24984503
0002b0 db 70 6c 3e 90 4e 89 3e 2c c0 c2 bb 93 8c 9b 3e
       0.23089926 0.2681775 -0.005943319 0.30380687
0002c0 83 4b 72 be 2a c4 7d bd b7 1b 7b 3e 65 4c 3b be
       -0.23661618 -0.061954655 0.24522291 -0.18290861
0002d0 2e 9e 2e be ed f3 5d be ab d0 cb 3d 9d f9 44 3e
       -0.17052528 -0.21675082 0.0995191 0.19235845
0002e0 67 f9 3f bd 25 ab aa bc d8 dc c3 3d bc a1 ea bd
       -0.046868708 -0.020833561 0.09563607 -0.1145663
0002f0 d8 85 52 3e 41 81 0d bc 52 56 37 be b8 25 a1 be
       0.2055887 -0.008636774 -0.17904022 -0.3147409

sequential/conv2d/Conv2D f4 [16, 3, 3, 3]
000000 fd 3c 68 3c 40 12 5d 3d 39 d0 37 be 8d 89 e7 bd
       0.014174697 0.053972483 -0.17950524 -0.113055326
000010 15 b6 73 bd f3 66 6b bd 9f 1a ce bd 2f 50 32 3d
       -0.05949982 -0.057471227 -0.10063671 0.0435335
000020 53 d9 27 bd e7 e6 df 3d 1e cc 3a 3c 27 1c 05 3e
       -0.04097874 0.10932713 0.011401204 0.1299902
000030 3b d8 ed 3d 1f 1b c4 3c be 28 33 3d 2a 93 13 be
       0.11613508 0.023938714 0.043740027 -0.14411607
000040 dd ac 0b 3e 15 34 26 bc cf 6c 08 3e ad a6 3d 3e
       0.13640161 -0.010144253 0.13322757 0.18520613
000050 4f 5c d4 3d 49 3a 66 bd ac 38 0a 3e 3c 0a 32 be
       0.10369169 -0.05620793 0.13498181 -0.17386717
000060 4a 05 c1 3b af f5 36 be 9d 56 d6 bd 0c 27 a7 bd
       0.005890523 -0.17867158 -0.10465739 -0.081617445
000070 db db 90 3a dd c9 17 3e 40 e8 09 3e af 60 21 be
       0.001105185 0.14823098 0.13467503 -0.15759538
000080 0b 58 2b be 6a 4a 03 3d 7c 47 66 3c ca 02 1e ba
       -0.16732804 0.03205339 0.014055129 -0.0006027637
000090 25 f4 98 bd 44 9e 84 bc 76 88 bd 3c c2 8e 04 be
       -0.07468442 -0.016188748 0.023136359 -0.12945083
0000a0 2a d4 77 bc 2d 8c df bd e5 52 99 3d 36 b6 27 3d
       -0.015126267 -0.10915408 0.07486514 0.040945254
0000b0 fa af 35 3c 91 63 10 3e 96 23 b5 3d f6 33 13 be
       0.011089319 0.14100482 0.08844678 -0.1437529
0000c0 6a 52 6a bc d8 5f 2f be 7d 7e 0c 3c 1a 64 c8 3d
       -0.014301876 -0.17126405 0.008575079 0.09784718
0000d0 76 3c 05 3e b4 ea b6 bc 5f 25 c4 bd 66 b9 98 3d
       0.13011345 -0.022328712 -0.095774405 0.07457237
0000e0 92 0c dc bd 2c 0c 1c bd cc 37 6d bd 4c 25 07 be
       -0.10744585 -0.038097546 -0.05791454 -0.13197821
0000f0 80 65 11 be 01 6c 0f bd e7 73 1a bc f7 a1 23 be
       -0.14198875 -0.03501511 -0.009427047 -0.15979753
000100 2f 58 33 3e fd 6a 6c 3d 51 db 03 be 43 96 ea bd
       0.17514108 0.05771922 -0.12876631 -0.114544414
000110 88 2f 1c 3e 91 5a e4 bd 35 14 ea 3d 41 24 2b 3e
       0.15252507 -0.11150087 0.114296354 0.16713049
000120 3a bf 48 3e 63 64 b7 3d 50 7a 31 be 08 82 0f ba
       0.19604197 0.08954694 -0.17331815 -0.0005474393
000130 7b 7d ab 3d 50 b4 77 bc ac 0b 40 3e d4 4b c3 bc
       0.08373543 -0.015118673 0.18754452 -0.023839869
000140 1c 7f 54 3d ee e0 bf bd 05 36 26 3e b3 35 9e bd
       0.051879033 -0.09369074 0.16231544 -0.07725086
000150 a2 7e a1 bd ba 57 d5 bc 4b 58 85 3d 58 d2 17 bd
       -0.078854814 -0.026042808 0.06510981 -0.037065834
000160 5f 7b 05 bd 3c 19 2e be 6e 27 13 be 03 58 c6 bd
       -0.03258836 -0.17001814 -0.1437051 -0.09684756
000170 5e 3a 38 3d 93 27 24 bd 67 56 36 3e ac 87 63 3d
       0.04497754 -0.040076803 0.17806397 0.05554931
000180 76 e3 50 bd ba 92 c5 bb ca 9c 48 bd 5e 5e dc 3d
       -0.050998174 -0.006029454 -0.04897765 0.107601866
000190 13 e9 0f be ab 2b 4f 3e e6 7a 75 bd b6 a4 02 3e
       -0.14053755 0.20231502 -0.05993166 0.12758145
0001a0 64 01 a5 3c 2d 8e 00 be 16 cd 43 3e a3 6e 1a 3e
       0.020142265 -0.12554236 0.19121203 0.15081267
0001b0 28 26 25 bd 8e 26 2f 3d e0 37 c4 3d 50 d9 57 3d
       -0.04031959 0.042761378 0.0958097 0.05269748
0001c0 c8 52 e7 3d 93 15 34 3e d2 42 22 3e 75 5a 32 3e
       0.11295086 0.17586355 0.15845802 0.17417319
0001d0 93 da ef 3d 49 c1 15 3e 6f ac 7b 3c 10 a5 91 bc
       0.117116116 0.14624514 0.015360936 -0.017778903
0001e0 7c 28 43 bc 2b 29 40 3d b4 c2 15 3d 70 cf a2 bd
       -0.011911508 0.04691426 0.036562636 -0.07949722
0001f0 da 11 d5 bc a5 e0 b5 3d 05 3b 0f bd cb 60 16 be
       -0.026009489 0.08880738 -0.034968395 -0.14685361
000200 41 b0 03 be 4f d1 00 3e a6 d7 20 3e 9e 44 fd bc
       -0.12860204 0.12579845 0.15707263 -0.030916508
000210 7a e4 d3 bd 3b 9d 1c 3e e4 5c 31 bd 20 fb 2f 3e
       -0.10346313 0.15294354 -0.043301478 0.1718564
000220 82 6a 11 be 75 4c e5 3d dc 8b 15 3e 33 2b 8d bc
       -0.14200786 0.11196224 0.14604133 -0.017232513
000230 eb 6d 43 be b3 d0 0d be eb 4d 0c be e0 f0 53 be
       -0.19084899 -0.13849144 -0.13701598 -0.20697355
000240 a4 5c ca 3d ae 33 b7 3d 56 ac bb 3d 22 89 48 be
       0.09880951 0.08945404 0.0916373 -0.19583562
000250 9b 44 09 3e 41 5c d3 bc 2e 69 10 3d 48 e1 09 be
       0.13405077 -0.025800826 0.035256557 -0.13464844
000260 e1 0d 1c 3e 1e 68 83 3d 66 24 05 be 0b 95 43 bd
       0.1523967 0.06416343 -0.13002166 -0.04774956
000270 fc 48 13 3e 86 53 e7 bd 57 9a 1d 3e 22 04 25 3e
       0.1438331 -0.11295228 0.15390907 0.16114858
000280 34 8d af bb 80 04 47 be 8b 7f 23 be c0 0a c2 3d
       -0.005357409 -0.1943531 -0.15966623 0.09474707
000290 13 31 02 be c3 9c 92 bd 09 26 c7 bc 41 08 2a be
       -0.12714033 -0.07158806 -0.024310129 -0.16604711
0002a0 d1 7f d3 3d 00 50 94 3d 67 cd 20 be 42 7f 30 be
       0.103271134 0.07241821 -0.15703355 -0.17236045
0002b0 7b e6 9a bd 26 ca f2 bd 6c be e6 3d c9 db cf bd
       -0.07563492 -0.11854963 0.11266789 -0.101493426
0002c0 80 d5 e9 3b 53 e0 57 bd bf b1 51 3d 1f 37 8d bc
       0.007136047 -0.052704167 0.051194903 -0.017238198
0002d0 5e 12 f3 3d b8 d2 9f 3d 52 85 e7 3d 5c 81 a6 3b
       0.11868738 0.07803863 0.11304726 0.005081339
0002e0 18 a1 fe 3d 44 5b 0c be 50 3d 97 3d bd d4 42 3e
       0.1243307 -0.1370669 0.07384741 0.19026466
0002f0 39 93 fa 3d 94 c3 16 3c 23 ff eb bd 68 c5 07 be
       0.12235112 0.009201903 -0.11523273 -0.13258898
000300 df 79 80 3d 19 3c 18 be ae b4 ad 3d 2d 84 35 3e
       0.06273245 -0.14866675 0.084817275 0.17726202
000310 f7 6b bd bd 2c 81 1d be 99 7d 1b be e0 b0 2c be
       -0.09249108 -0.15381306 -0.1518463 -0.16864347
000320 51 e6 ab 3a 3d 12 0c bd 3c 7f 24 3e 7f bc 35 be
       0.0013114904 -0.03419708 0.16064161 -0.17747687
000330 0a c7 14 3e 19 03 25 be f9 44 0b 3e 2d 62 73 3d
       0.14529052 -0.16114463 0.1360053 0.0594198
000340 81 b2 3c bd eb 40 05 3e 30 78 86 bb ec 9d 8b bc
       -0.046068672 0.13013045 -0.004103683 -0.017043076
000350 2a 99 2d be aa 2e db 3d c1 61 1d 3e 76 1d 18 3e
       -0.16952959 0.1070226 0.15369321 0.14854988
000360 fb 1d 19 3c 9a a3 36 3e 6e a5 8b 3b 57 1d 36 3d
       0.009345527 0.17835847 0.004261664 0.044461574
000370 a1 b3 06 bd ca 8d 22 bb a8 fa c6 bd b5 07 3c 3e
       -0.03288615 -0.002480375 -0.09715778 0.18362315
000380 e0 a5 1f 3e 23 68 32 be a1 3f 56 bd c6 0f 90 3d
       0.1559062 -0.17422538 -0.052306775 0.070342585
000390 b5 41 8a 3d 72 b8 b8 bc 1c 32 22 3e 2c aa ae 3d
       0.06750814 -0.022548888 0.15839428 0.085285515
0003a0 5f ba 70 bd e7 f4 e2 3d 16 98 18 3d db 75 42 3e
       -0.058771487 0.11081868 0.037254415 0.18990271
0003b0 55 db d6 bd b6 3f 1a be 31 fe bf 3c fd c7 be bd
       -0.10491053 -0.15063366 0.023436638 -0.093154885
0003c0 57 59 4c be 60 05 24 be 88 b1 90 bd 54 69 40 be
       -0.19955955 -0.16017675 -0.070651114 -0.1879018
0003d0 8b aa e7 3c 0a 3c f2 bd 47 31 9e bd c3 55 26 3e
       0.028279563 -0.11827858 -0.07724243 0.16243653
0003e0 56 2d 0d 3e 55 b9 1f 3e 7d f0 3e 3e 3c bb ce bd
       0.13786826 0.15598042 0.18646426 -0.10094306
0003f0 82 b6 30 be e2 5d 56 3d 23 f4 fe bd 4d 54 a9 3d
       -0.17257121 0.052335627 -0.12448909 0.08268032

sequential/conv2d_1/Conv2D f4 [16, 3, 3, 16]
000000 f8 7b b5 3c fc c2 c5 3c a8 be be bd 75 ec e6 bd
       0.02215384 0.024140827 -0.093137085 -0.11275569
000010 a1 fe cd bd 7b be 9d 3d 96 fd db 3d 2c e3 ea bd
       -0.10058332 0.07702347 0.10741727 -0.11469111
000020 e3 2c 1d bd 48 88 96 bd 8d 8b 1a bd 29 6c 36 3d
       -0.038372885 -0.07350212 -0.037730742 0.044536743
000030 83 91 cc 3d 46 14 d9 bd 73 46 fd bd 41 54 4c 3d
       0.09988692 -0.1059957 -0.12366953 0.04988504
000040 16 2b 07 be ec f2 4d 3d f5 b6 fb 3c 69 04 c8 3d
       -0.1320003 0.050280496 0.03072689 0.09766466
000050 63 b6 89 3b 2c fe b6 3b 2d c1 bb 3c 9b 1d 8a 3d
       0.0042026504 0.005584499 0.022919262 0.06743928
000060 b5 f7 e1 3d dc c2 60 3d 00 2a 0c 3e aa 4d 55 3c
       0.110335745 0.054873332 0.13687897 0.013019005
000070 bd 5b d8 bd 1c 79 d8 3d da 63 07 bd fa 18 04 be
       -0.10564373 0.10569975 -0.03305421 -0.12900153
000080 03 21 c8 3d 52 8a 16 3d 88 c5 08 3e a7 af 04 3e
       0.097719215 0.036753006 0.13356602 0.12957631
000090 20 77 e9 3d 44 18 ba bd 07 ce c6 3c 08 5d df bd
       0.113996744 -0.090866596 0.024268163 -0.10906416
0000a0 b6 f4 ee 3d 2c 6e 0d be 09 a0 e7 bd f7 e1 9b 3d
       0.11667769 -0.13811558 -0.11309821 0.07611459
0000b0 7f f8 a9 3c e0 ab ca bc 79 77 8a bd c5 1e 89 3c
       0.020748375 -0.02474016 -0.06761069 0.016738305
0000c0 fb 91 99 bc 89 47 00 be f8 01 52 3d ab 7e c4 bd
       -0.018746367 -0.12527288 0.05127141 -0.095944725
0000d0 15 07 1b be 9b 7a d3 bd f3 b1 7c 3c 2c 99 b3 3d
       -0.1513942 -0.103261195 0.015423286 0.087694496
0000e0 be 4e d3 3d d1 32 ca bd f1 4b 6c bd 97 e1 c7 3a
       0.10317753 -0.09872974 -0.05768961 0.0015249726
0000f0 2f e6 a5 3d ed aa a9 bd 5b b1 5c 3d c7 e9 ce 3d
       0.08100545 -0.08284555 0.053880077 0.10103183
000100 72 fc ee bc cd 8f 18 3d f1 b9 02 3d 30 9f 45 bd
       -0.02917311 0.037246514 0.03191561 -0.048247516
000110 fe 87 b6 bd 5e 01 63 3d ce a0 09 be db 9c dc 3c
       -0.08912657 0.055421226 -0.13440248 0.026930263
000120 06 dc 0b bc dd 5c fa bd 65 47 e6 bd 88 b5 81 bd
       -0.008536344 -0.122247435 -0.11244086 -0.063334525
000130 8c a4 c9 3d f0 e5 a2 3d 8d cd a5 3c f9 9c 86 3d
       0.09845838 0.07954013 0.020239616 0.06572909
000140 69 3f 1d 3d ae 7d 08 3e 86 7e a0 3d 1d 92 04 bd
       0.03839055 0.13329193 0.078366324 -0.032365907
000150 18 e1 16 be d2 cf cc bd 2d aa 47 bd 5a 3b c8 bd
       -0.14734304 -0.10000576 -0.048746277 -0.097769454
000160 fa f1 77 bd 2c bb 4a bd d3 7f e9 bc 52 55 c2 bc
       -0.0605335 -0.049494907 -0.028503334 -0.023722325
000170 c4 61 60 bb a4 13 ee 3d 22 5a 0e bc ef 51 0d be
       -0.003423796 0.1162484 -0.0086884815 -0.13800786
000180 ea 88 00 3e ad 2d d1 bd 35 93 d1 bd 59 f2 1c 3d
       0.12552229 -0.1021379 -0.10233156 0.03831706
000190 39 d4 65 3d 06 33 cb 3d a7 63 dd 3d 33 91 28 bd
       0.056110594 0.09921841 0.10810023 -0.041154098
0001a0 40 75 df 3c 89 a4 14 bd 0f 7a 0c 3c 84 05 71 3d
       0.027277589 -0.036289725 0.008574023 0.05884315
0001b0 10 b2 b7 3d c5 ec ce bd 1e ae ff bd ce 1c 07 3e
       0.089695096 -0.10103754 -0.12484382 0.13194582
0001c0 96 1e 58 bd 1b 25 53 3d ae 0c 08 bd e9 1d 07 be
       -0.052763544 0.05154906 -0.033215217 -0.13195004
0001d0 8a eb 3c 3d 50 b4 0a be 02 65 90 bd 2e 20 07 3e
       0.046123065 -0.13545346 -0.07050516 0.1319587
0001e0 51 50 1f 3d cb b2 58 3d 09 7a 00 be 15 9e f0 bd
       0.038894955 0.052904885 -0.12546553 -0.11748902
0001f0 07 59 a7 bd da a3 59 bd b6 70 14 3c 27 73 aa 3d
       -0.081712775 -0.053134777 0.0090600755 0.08322745
000200 6e f4 b1 bc 05 a1 d1 bd eb 66 d4 3d 35 71 79 bd
       -0.021722998 -0.1023579 0.103711925 -0.06089898
000210 ce 4c 5e bd 73 88 2a bc ce 32 ee bd 88 a1 ad 3d
       -0.054272465 -0.010408509 -0.11630784 0.08478075
000220 6e 1a 8c bd 91 d8 b8 bd 9b c5 2e bd aa 7d b4 3d
       -0.068409786 -0.09025682 -0.04266892 0.08813031
000230 34 a9 5b bd ba 75 b6 bd d5 65 d4 bd de f3 b3 3c
       -0.05362816 -0.08909173 -0.103709854 0.02196687
000240 60 b5 f5 bc 12 f5 40 bd 3c 97 70 bb 66 53 6c 3d
       -0.029993713 -0.047108717 -0.0036711236 0.057696722
000250 1c e3 37 3d f0 9e 8d 3d 74 be 00 3e 83 1a ba bd
       0.044894323 0.069150805 0.12572652 -0.09087088
000260 0f 85 39 3c 78 ce ac bd 5a f0 ea bd fc ce 66 3d
       0.011323228 -0.08437818 -0.11471625 0.05634974
000270 aa e5 9b bd 38 aa d5 3d 97 1b 26 3c b2 1e b6 3d
       -0.07612164 0.10432857 0.010138414 0.088925734
000280 50 ef 04 bd 0f 53 ba 3d 55 51 75 3d 8c df c8 3d
       -0.03245479 0.090978734 0.059892017 0.09808263
000290 9e 45 cf 3c 11 91 08 be d8 05 7b 3d ad be a8 3c
       0.02530175 -0.13336588 0.06128487 0.020598734
0002a0 b2 8d 08 3e 0d 32 f9 bd 6c c0 30 bd 99 4f 1c 3e
       0.13335302 -0.121677496 -0.043152258 0.15264739
0002b0 2a 17 ca bd 98 92 f8 3d 3b d2 63 3c 0c 2c db 3c
       -0.098676994 0.121373355 0.013905103 0.026754402
0002c0 0a 64 03 3c 5e 12 2a 3e d5 32 d5 bd 01 ec b4 3d
       0.008019457 0.16608569 -0.10410086 0.08834077
0002d0 e1 90 ce bc f1 e2 1a 3d d6 72 d1 bd 04 fd 85 bd
       -0.025215568 0.037814084 -0.10226981 -0.065423995
0002e0 28 db 04 be e8 08 91 bd d6 f0 db 3c ba 0f 77 3a
       -0.12974226 -0.07081777 0.026848238 0.00094246457
0002f0 94 36 79 bd a0 cf 85 3c 2a 8d 41 3d ab 56 f8 bd
       -0.060843065 0.016334355 0.047253765 -0.121259056
000300 da e4 06 be 42 03 92 bc 33 78 df bd 79 2f 16 3d
       -0.13173237 -0.01782382 -0.10911598 0.036666367
000310 6d c1 fa bd 34 4d 95 bd fb 4d c6 bd 81 6d c9 3c
       -0.12243924 -0.07290116 -0.09682842 0.024588348
000320 1c b8 ee bd 0e 81 08 be 05 99 f1 3c 74 ca ab bd
       -0.1165621 -0.1333048 0.02949191 -0.08388224
000330 b1 9e 98 bd 8c 88 ec bd 7f 30 51 bd 82 4c 66 3d
       -0.07452143 -0.11549482 -0.05107164 0.056225307
000340 b3 b7 02 bd 7e ad 9e 3d 68 c8 9e 3d 47 7a 83 bd
       -0.03191347 0.07747935 0.07753068 -0.06419807
000350 70 97 6b 3b 7a f5 61 bc 20 cf 6f bd 3f b8 3f bc
       0.0035948418 -0.013791436 -0.05854714 -0.011701643
000360 73 4f 3a bb 91 f2 bb 3c 8a 72 8b 3d 0d a5 ef bb
       -0.0028428703 0.022942813 0.06808956 -0.0073133768
000370 de 78 08 be fe 16 9e 3d 41 b6 33 3d bb 17 01 be
       -0.13327357 0.07719229 0.043874983 -0.12606709
000380 4c 1c d3 bd 27 01 80 bd 89 e6 07 3e f2 63 dd bb
       -0.103081316 -0.0625022 0.13271536 -0.006756299
000390 8b a9 2a 3d d8 b6 e2 bc 74 e0 06 be d9 64 d0 bd
       0.041665595 -0.027675077 -0.1317156 -0.10175485
0003a0 16 47 ab 3b 0b f8 ed bc e2 89 07 be c4 28 0d bd
       0.00522698 -0.02904894 -0.13236192 -0.034462705
0003b0 60 d9 8b 3c 5f 68 e0 bd 36 fe 70 bb a3 ba d3 3d
       0.017071426 -0.10957407 -0.0036772615 0.103383325
0003c0 f6 64 9b 3d 6e 54 dc 3d 1d c4 cc 3d bc 03 be 3d
       0.07587616 0.10758291 0.09998343 0.09278056
0003d0 aa e2 e1 3c 8a 85 0a bd c5 fa 11 be b4 42 13 bd
       0.027573902 -0.03381876 -0.14255817 -0.035952285
0003e0 48 4d ad bd 21 ea e0 bb 28 93 11 3c 3d 30 fe bd
       -0.08462006 -0.006863848 0.008885182 -0.124115445
0003f0 75 33 a1 bd ea 93 b9 bd d8 c0 ea 3c bf 45 7d 3b
       -0.07871143 -0.090614155 0.028656408 0.0038646308

sequential/conv2d_2/Conv2D f4 [32, 3, 3, 16]
000000 a0 11 14 3d be 6f d1 3d a6 ab 03 3a 07 2e a2 bc
       0.03614962 0.10226391 0.0005022831 -0.019797338
000010 cd 7d eb bd 56 6c 87 bd dc 9d 8b bd 59 9b cb bc
       -0.11498604 -0.0661246 -0.06817219 -0.024854349
000020 9a cf 96 bc ad 43 06 bc 7b e1 ae bd cd 62 3e 3d
       -0.018409539 -0.008194846 -0.08539101 0.046480943
000030 20 8b a0 bc 86 96 1c 3d b5 46 f2 bc 0d 42 19 3e
       -0.01959759 0.038229488 -0.029574731 0.14966603
000040 c7 cb 64 bd bd 43 04 be 9f 88 36 3d 66 04 c7 bd
       -0.0558584 -0.12916465 0.044563886 -0.09717636
000050 a5 2e 9e bd 7d b0 bb 3d d6 31 d7 3c c1 20 98 3d
       -0.077237405 0.09164522 0.02626888 0.07428122
000060 86 b2 e4 3d e1 ee 1a 3e b3 0d e6 3c 60 43 8f 3d
       0.11166863 0.15130188 0.028082704 0.06995273
000070 74 2b 43 bd 58 ec b8 3d b7 b5 43 bd b9 6a 91 bb
       -0.047648862 0.09029454 -0.04778072 -0.004437771
000080 d2 e8 56 3d 5f a7 a5 3c 4b 6a 66 bc 3b 4f cf bd
       0.05246813 0.02022141 -0.014063428 -0.10122534
000090 82 1d b8 3d 0f 31 08 bc f9 cf 97 3d 68 8f 80 bd
       0.08990003 -0.008312478 0.074127145 -0.062773526
0000a0 3a a0 ad bd f8 2a 09 3e 2e e4 24 3e 8a b5 b4 bd
       -0.084778264 0.13395298 0.16102669 -0.08823688
0000b0 90 f6 93 3d e9 cc a7 bc e3 6c a4 bc d1 d6 23 bc
       0.072247624 -0.020483451 -0.020071452 -0.009999947
0000c0 35 76 d3 3d 70 99 83 bd f7 93 cd 3d a7 24 cd 3d
       0.103252806 -0.0642575 0.10037988 0.100167565
0000d0 a2 8c a6 3d 90 72 a7 3d c0 13 ae bd c9 06 0f bd
       0.08132292 0.08176148 -0.08499861 -0.03491858
0000e0 9d bd 1b bd c0 1a 86 3d b2 c6 dc 3d 4b 10 af 3d
       -0.038022626 0.06548071 0.107800856 0.085480295
0000f0 54 8b 74 3c 5f 76 60 bd 6d 0c fd 3d 74 d1 68 3d
       0.014925797 -0.054800387 0.12355886 0.056840375
000100 1f 69 a5 bd ef da eb 3d 79 c4 f7 3d 1f dc 97 3d
       -0.08076691 0.11516368 0.12098021 0.07415032
000110 a1 8f b1 bd 51 c5 c2 bd ff c6 20 3d ed 96 1e bb
       -0.08669973 -0.09510291 0.039252277 -0.0024198845
000120 dc ed 84 3d fd f2 89 3d e9 ed 97 ba af d0 b4 3d
       0.064906806 0.067357995 -0.0011591288 0.08828866
000130 01 16 70 bd bb 90 57 3d 11 7a a6 bd 3d da 8d 3d
       -0.058614735 0.05262826 -0.08128751 0.06926391
000140 48 3c 82 bd a1 79 9a 3d cd 42 81 3d e2 80 0a bd
       -0.06359154 0.0754273 0.06311569 -0.03381432
000150 f5 d7 ac bd ec 91 03 3e 82 2f 14 be 49 4f 88 bc
       -0.08439628 0.12848634 -0.14471248 -0.016639369
000160 92 79 ed 3d 90 6b 30 3e 04 69 d1 bc d2 31 89 bd
       0.11595453 0.17228532 -0.02556277 -0.066989556
000170 31 87 22 3d 34 45 77 bd 02 08 3d bd c8 f7 f3 bc
       0.03967971 -0.06036873 -0.046150215 -0.029781237
000180 7f f8 a9 bd 9f 94 24 bd 8c fa e5 bc 5d c1 95 bc
       -0.0829935 -0.0401808 -0.028073572 -0.01828068
000190 54 27 c7 3d 35 b9 ca 3d 2f 03 a5 bd 8f 73 e5 3d
       0.09724298 0.09898607 -0.08057248 0.11203682
0001a0 1b 5a 93 3d b1 c7 52 3d 45 9d 09 3e 74 1c bd 3c
       0.07194921 0.05145997 0.134389 0.023084857
0001b0 eb b9 3c bd 35 34 2d bd bb d5 0d 3d c1 7d b4 3d
       -0.046075743 -0.042286117 0.034627657 0.08813048
0001c0 7a 75 d3 3d ed e8 92 3d af b6 58 bd ec 5c 0a 3e
       0.10325141 0.07173333 -0.052908596 0.1351201
0001d0 63 4d 8d 3d 44 9c fb 3d fa d1 be 3d 17 04 c6 3b
       0.06899526 0.12285665 0.093173936 0.006042968
0001e0 bf 85 9f bd c2 15 fc 3d bd 6f b5 3d 03 02 f8 bc
       -0.07789182 0.123088375 0.08859203 -0.030274397
0001f0 2a b2 0d 3e c4 aa 93 3d 29 26 17 3c a5 e1 0a 3e
       0.13837495 0.07210305 0.009225407 0.13562639
000200 af ae a3 3d df 9f 1f 3c 57 15 cf 3d 86 30 18 3c
       0.079923026 0.009742706 0.10111492 0.009288913
000210 ff 01 f8 bc 8f ce d2 3d 56 24 bb bd 3f b8 20 3e
       -0.03027439 0.10293304 -0.0913779 0.15695284
000220 ae 73 4a 3d 99 0e e2 3d 19 b2 fb 3d 42 4b 83 bd
       0.049426727 0.110379405 0.12289829 -0.06410839
000230 d4 46 2f 3c 93 66 b7 3c f7 0b 95 bd a8 ca cb bc
       0.010698039 0.022387778 -0.07277673 -0.024876907
000240 8e 12 8c 3d 75 5a 1e bc 4e 84 3d 3c b7 5a 98 ba
       0.068394765 -0.009665121 0.011567188 -0.0011623715
000250 76 70 7f bd 01 29 0c be 5e 30 ee 3d 9f 46 04 3e
       -0.06236311 -0.13687517 0.11630319 0.12917565
000260 74 b5 e3 3d 88 b0 55 3a e6 21 34 3d b7 f1 c3 3c
       0.11118594 0.00081516104 0.04397764 0.02391897
000270 cc 2b b3 bd 53 98 8a 3c 94 a5 e9 3d 19 6b c0 3c
       -0.08748588 0.016918337 0.11408535 0.023488568
000280 65 68 af 3d 87 c0 56 bd bf c3 5e 3d c3 52 a9 3d
       0.085648336 -0.052429702 0.054385897 0.08267739
000290 ec 42 aa bc 7f a5 1e be f7 d4 c6 3d c4 7f b7 3c
       -0.020783864 -0.15492819 0.097085886 0.02239979
0002a0 b6 36 53 bd 7c 5d 4e bd 6e 85 65 3b 6b 4a 9c bd
       -0.05156585 -0.050382122 0.0035022157 -0.076313816
0002b0 11 a7 ac bc 63 3a b3 bd 21 42 62 3c 0c 1f 38 3d
       -0.021075757 -0.08751371 0.013809712 0.044951484
0002c0 f6 02 bd bd 21 86 bf 3b 88 90 b8 3d a7 e3 75 ba
       -0.092290804 0.005844847 0.09011942 -0.0009379931
0002d0 82 a1 f6 3d d6 40 b2 bd ec ec 02 bd 75 b8 9b bd
       0.12042524 -0.08703773 -0.031964228 -0.07603542
0002e0 e5 fd c8 bd 9b ed 17 3d b2 2d b2 3d 78 f9 b1 bd
       -0.098140515 0.037091833 0.08700122 -0.086901605
0002f0 d9 06 b6 bc d7 c9 b7 bd 72 26 18 bd 09 6e c9 bc
       -0.022220062 -0.08974045 -0.03714604 -0.024588602
000300 c0 e0 19 3d 58 42 84 bd 52 a6 d8 3d 1f 74 e9 bd
       0.037567854 -0.064579666 0.10578598 -0.113991015
000310 9b 74 99 3d 32 0c c5 3c 19 07 7d 3d 91 80 f0 3d
       0.07492944 0.024053667 0.061774347 0.11743272
000320 84 15 0d bc 81 8c a3 3c f4 cc 9a bd d5 4c fc 3c
       -0.008611087 0.019964458 -0.07558623 0.030798355
000330 05 fe ba 3d bc a8 9d bd 00 5d 6d bc a3 d3 97 bd
       0.09130482 -0.07698199 -0.014487505 -0.074134134
000340 70 bb d6 3d 39 06 24 3d 64 59 eb 3b bc d9 87 bb
       0.104849696 0.040044997 0.007182287 -0.004145829
000350 21 27 0d bd 9e b0 d1 bd d4 de f1 3d ed c1 7f bd
       -0.034461144 -0.10238765 0.11810079 -0.0624408
000360 aa 3c ae 3d 60 e1 1d bd 8d 64 28 bd 85 dd 67 bc
       0.085076645 -0.038545012 -0.041111518 -0.014151935
000370 2e 82 0a 3d 43 40 fb 3c a3 71 ab 3d 8d bb 0b be
       0.033815555 0.03067029 0.08371284 -0.13645764
000380 a9 b4 cb bd e5 bf fe 3d 02 32 09 3e 68 62 0c bd
       -0.099465676 0.12438945 0.13397983 -0.034273535
000390 39 8c f5 3d 9a 1e 34 be 50 f8 93 3d df 42 a2 3c
       0.11989636 -0.17589799 0.07225096 0.019807277
0003a0 0c bb a1 bd 18 08 88 bb c7 30 aa 3c e0 4b 57 bc
       -0.078970045 -0.0041513555 0.020775212 -0.013140649
0003b0 ee 3b 50 3d 52 77 97 bd c6 4e ab bd 11 77 33 bd
       0.050838403 -0.073958054 -0.08364634 -0.043814722
0003c0 1d bf 7e 3d fa 69 cb 3b e2 3f ae bd e1 b1 60 3d
       0.06219398 0.0062077018 -0.085082784 0.05485714
0003d0 5e 13 e6 3c fd e8 31 3d cb 86 a9 bd fd c3 f0 3d
       0.028085407 0.043435086 -0.08277663 0.11756132
0003e0 8c a8 ee bb a7 ed fb bd 1f f2 0f 3d 83 9b 6f 3c
       -0.007283276 -0.12301188 0.035143014 0.014624479
0003f0 14 90 a9 3d 51 9e 8a 3d 18 89 f3 bd b8 ba 72 3d
       0.08279434 0.06768478 -0.11891383 0.0592601
