training/dataset_02/model_9975.tflite (tflite, 165428 bytes, 10 tensors)

sequential/conv2d/BiasAdd/ReadVariableOp/resource f4 [16]
000000 b3 06 66 bc 99 1b 5a bc 30 e9 a5 bc d7 cc bd bb
       -0.014039683 -0.013312244 -0.020252794 -0.005792241
000010 89 77 c3 3c ce 26 4c 3c 53 02 09 bd 29 9c 69 3d
       0.02386071 0.012460424 -0.033449482 0.05703369
000020 3b 02 d5 3c fb b6 05 3d c4 23 6a bd 33 4e 25 3d
       0.02600204 0.032645207 -0.057163015 0.04035778
000030 9e 85 27 3d b4 8a fe 3b 3a 54 1d bb 86 d8 ee 3c
       0.04089891 0.0077679995 -0.0024006502 0.02915598

sequential/conv2d_1/BiasAdd/ReadVariableOp/resource f4 [16]
000000 05 c8 cb bc e6 bc 1d bd 33 f5 03 bd fc bd 0d 3c
       -0.02487565 -0.038510226 -0.032216262 0.008651253
000010 1d 1a cd ba 00 00 00 00 3e fd 6a ba 2e 40 e3 3c
       -0.0015648041 0.0 -0.00089641276 0.027740564
000020 5c 28 96 bc 4a 73 e0 bb 29 85 be ba a5 2c 14 bc
       -0.018329792 -0.006849681 -0.0014535534 -0.009043847
000030 5d 87 ec bb 3d f0 bd bc 74 a8 4a bc ae 59 f5 bc
       -0.007218285 -0.023185844 -0.012369264 -0.02994999

sequential/conv2d_2/BiasAdd/ReadVariableOp/resource f4 [32]
000000 8d 35 e2 3a e0 d7 e7 b8 86 c4 82 bc 01 aa b7 3c
       0.0017258391 -0.00011055148 -0.01596285 0.022419931
000010 61 26 a7 bb 71 be 1e 3d 26 db d2 bc 8d fa 8f 3a
       -0.0051010107 0.038755838 -0.025739264 0.0010984704
000020 70 a4 24 3d 69 48 fb bc 8d e5 50 bd 2c e2 05 bc
       0.040195882 -0.030674176 -0.051000167 -0.008171599
000030 a8 6d 6f 3a ed 15 7c bd f5 ed 71 3d 04 5b f4 bb
       0.00091334665 -0.061544348 0.059064824 -0.007457139
000040 ab 5d 34 bb c8 d0 fa bb 5f a4 03 3d c6 77 90 bb
       -0.002752165 -0.007654283 0.03213918 -0.0044088094
000050 ba b0 00 bc a1 2b c6 3c c1 4a 17 bd d8 1f 81 bc
       -0.007854635 0.024190726 -0.036936525 -0.015762255
000060 4d 24 1c 3d cf 8e c0 3c bb c8 bd bb 53 75 d2 bc
       0.038120557 0.023505596 -0.005791751 -0.02569071
000070 43 4b bb bc 0b 5c c8 bb 94 ab 0c bd bb 56 c0 bc
       -0.022863036 -0.006114488 -0.034343317 -0.023478856

sequential/dense/BiasAdd/ReadVariableOp/resource f4 [64]
000000 19 d6 1a bd bc ec 06 3d 27 76 28 bd 75 f9 31 3d
       -0.037801836 0.03294061 -0.041128304 0.04345079
000010 b4 d9 9b 3a c7 01 38 3d d0 00 93 3b 4e 5b 1c bd
       0.0011890442 0.04492357 0.004486181 -0.038173012
000020 b5 4c ea bc 95 8b 60 b9 73 79 b2 3b 68 8a 0e bd
       -0.02860103 -0.00021414303 0.005446607 -0.034799963
000030 87 92 55 3d a6 53 73 bc f5 f2 49 bd ca 9c d1 3c
       0.052141692 -0.014851486 -0.049303968 0.025587458
000040 a2 31 6f 3d 66 4d 97 bc 1b f3 cc bc 99 36 83 3c
       0.058396943 -0.018469524 -0.025018265 0.016017245
000050 dc 9e c7 3b 47 58 5a 3c d3 ba 19 bd ee 37 9f 3d
       0.0060919356 0.013326711 -0.037531685 0.077743396
000060 3f e6 4e 3c 64 b2 b1 3c 15 d5 4b bc a1 5e 36 bd
       0.012628137 0.021691509 -0.012440939 -0.04452384
000070 9e a2 4f bd dc 39 b8 3c 87 96 45 bd ff 16 2f 3c
       -0.050692193 0.022488527 -0.048239257 0.010686635
000080 9a 4f 7f 3d 99 5f 4c bd 6e fa 32 bd 67 2e de bb
       0.062331773 -0.049895857 -0.04369586 -0.006780434
000090 36 4c 0c 3c 71 4e 6e 3d 0f 98 33 3c 72 d9 3c bd
       0.008563092 0.058180276 0.010961547 -0.04610581
0000a0 0d 14 7a 3d 26 22 78 bc 1e 09 0e bd 0e e5 78 3d
       0.06105428 -0.01514486 -0.034676664 0.06076532
0000b0 04 c0 7e 3d 03 36 56 bd 9c 9a 7f 3d 71 4c 80 3d
       0.06219484 -0.052297603 0.062403306 0.0626458
0000c0 58 bf 29 bd 32 8b 31 bd 66 4d 07 bc c2 3a ab bc
       -0.041442245 -0.043345638 -0.008258199 -0.020902041
0000d0 d8 09 5c 3d 44 66 88 3c 81 b0 a2 3d 14 6d 34 3c
       0.053720325 0.016650327 0.07943822 0.011012334
0000e0 1e be bb bc 5f ef 3e 3c 5b 2f 21 3d 31 19 52 3d
       -0.022917803 0.01165375 0.039351802 0.051293556
0000f0 54 65 16 bd 25 32 28 bb 90 38 be 3b 64 7d 2f bc
       -0.036717728 -0.0025664654 0.0058050826 -0.010711048

sequential/dense_1/BiasAdd/ReadVariableOp/resource f4 [3]
000000 80 ec 22 3c 38 fa 4b 3d 3a 1c 50 bd
       0.009944081 0.049799174 -0.05080817

sequential/dense/MatMul f4 [64, 512]
000000 8b d1 8c bc f4 e7 a1 3b a0 85 a8 bd 15 c5 ac bd
       -0.017189762 0.004940981 -0.08228612 -0.08436028
000010 84 37 52 3d 40 db d8 3d ba 77 dd 3d e2 33 67 bd
       0.051322475 0.105886936 0.10813852 -0.056445964
000020 4f 71 33 3d 92 15 a2 3d 26 50 47 bd 28 b0 ae 3d
       0.04380923 0.079142705 -0.04866042 0.08529693
000030 00 26 91 3d bc 5e 41 3d 9d 92 ae bd 74 8e da bb
       0.07087326 0.047209486 -0.08524058 -0.0066698138
000040 21 bc 65 bd 1a 58 99 3d da bb e3 bc c7 58 e3 3d
       -0.056087617 0.07487507 -0.027799536 0.11100917
000050 8c a3 40 3d 8b c7 ac 3d 15 d8 a0 3d 4f b9 b4 ba
       0.04703097 0.08436497 0.078537144 -0.0013788136
000060 a3 e0 99 3d f6 d3 eb 3b 60 0e 1d bd f3 1c 0e bc
       0.07513549 0.0071968986 -0.038343787 -0.008673894
000070 5c e1 87 bd ec 9d 6f bd 87 f1 14 3b 8f 35 54 bc
       -0.06634781 -0.058500215 0.002272697 -0.0129522225
000080 c6 21 0e 3d 3e 70 af 3d 70 8c 98 3d 31 ca bb bc
       0.034700178 0.085663304 0.07448661 -0.02292356
000090 50 0c 5d 3d 3f 46 23 bc 95 aa 37 3d 2a 04 d0 3c
       0.05396682 -0.009965478 0.044840414 0.02539261
0000a0 f8 cf c0 3c 0c cc 80 bd 4d af 5d bd 8c 61 6b 3d
       0.023536667 -0.06288919 -0.054122258 0.057466075
0000b0 26 0f 8f 3d 2b 13 0d bd 2f 5a 5b bb 05 50 90 bd
       0.06985311 -0.034442108 -0.0033470502 -0.070465125
0000c0 5b 2f 5b bd a0 d2 02 3b 2a 90 70 bc 22 17 a5 3a
       -0.05351196 0.0019961968 -0.014682809 0.0012595395
0000d0 9e cf ca bd db 9e 96 bc 9e 33 c8 3d a3 ce 19 3c
       -0.09902881 -0.018386295 0.0977547 0.009387645
0000e0 7f bc d9 3d 3b 4d 8b bc 5a 64 a1 3d 5c fc ad 3c
       0.10631656 -0.0170046 0.07880469 0.021238498
0000f0 76 92 92 3d 34 48 f3 39 89 33 78 bc ef c1 7b 3d
       0.071568415 0.00046402367 -0.015149006 0.061464246
000100 9e f4 a6 3d 80 e1 94 bd 81 02 75 3d a1 57 d0 bc
       0.08152126 -0.07269573 0.05981684 -0.02543241
000110 a4 d8 18 bd 97 db 15 3d f4 2a ab 3c 3c 88 71 bd
       -0.03731598 0.03658637 0.020894505 -0.058967814
000120 2c 48 39 3c b5 78 b3 bd ca 70 4d 3d 30 78 48 3c
       0.011308711 -0.087632574 0.050156392 0.012235686
000130 f2 c5 9e bc 5b 53 dc 3d f8 38 eb 3d 8f 12 f7 bd
       -0.019381497 0.10758086 0.11485475 -0.12064087
000140 dd 10 6f 3b 9c 05 47 3d 26 01 46 bd a8 ca 98 3d
       0.0036478557 0.048589334 -0.04834094 0.074605286
000150 f8 93 27 3c f8 75 d9 3c df cd 6b 3d 80 26 02 3d
       0.01022815 0.02654551 0.05756938 0.031774998
000160 6d 1f 47 bd 7f 15 06 3d 1d a8 b9 bd ee 7f c1 3d
       -0.048613954 0.032735344 -0.09065268 0.09448229
000170 88 67 31 3d 96 04 ad 3c 4a e2 66 3d 8e 07 29 bd
       0.043311626 0.02112035 0.05636815 -0.04126697
000180 5c 68 17 3d 09 ca 21 bd 1b ce 79 bd e0 9a 40 bd
       0.03696476 -0.039499316 -0.060987573 -0.0470227
000190 3b ff ae bc 77 5d 8e bd 00 c4 4e 3c 5f 90 34 bd
       -0.021361938 -0.06951421 0.012619972 -0.044082996
0001a0 5c 9b b4 bc 50 6a 8c 3d a6 46 96 b9 bc e3 17 bd
       -0.022046737 0.06856215 -0.00028662867 -0.03708242
0001b0 b4 61 a9 bb 57 74 53 3d e8 c1 69 3d dd cf cb 3d
       -0.005169118 0.051624622 0.05706969 0.09951756
0001c0 b6 4e 9d bc d2 b2 85 3d b0 87 1f bd c2 c8 f2 3c
       -0.019202571 0.06528248 -0.03894776 0.029636744
0001d0 a8 14 4d bd f1 82 6d 3d 90 a2 92 bd 67 9c ce bd
       -0.050068527 0.057986204 -0.071599126 -0.10088425
0001e0 b1 4e 93 3c 32 12 71 bc e3 c8 81 bd 65 35 08 3e
       0.017981859 -0.014713811 -0.06337144 0.13301618
0001f0 07 61 ca 3d c1 56 27 bd f8 20 79 bb a3 19 87 3d
       0.09881788 -0.04085422 -0.0038014036 0.06596687
000200 e2 b9 85 3d 23 e1 91 3d b4 50 3b 3c 6a 48 8b 3d
       0.06529595 0.071230195 0.011432815 0.06800921
000210 c9 69 a1 3d b6 41 9b 3d c2 09 43 3c 63 98 88 bc
       0.07881505 0.07580893 0.011904182 -0.016674226
000220 4e 70 a9 bc cb e4 99 3d 52 e8 9b 3c 96 82 63 3d
       -0.020683434 0.07514342 0.019031677 0.05554446
000230 e2 a7 f9 3c 4a 5e 4a 3d a1 2f 00 bd 08 c4 41 3d
       0.03047556 0.049406327 -0.031295422 0.04730609
000240 71 15 96 bd aa 0d f0 bb b8 2d 3c bb 8f eb 23 3d
       -0.073283084 -0.0073258476 -0.0028713774 0.040019568
000250 38 07 11 3d 7a 0b 81 3d 6b 73 04 bd 06 8c 8e 3d
       0.035407275 0.06301017 -0.032336634 0.06960301
000260 3e 83 9c bd 99 ba 9a 3d 68 b4 4e bd 41 0c 3c 3c
       -0.0764222 0.07555122 -0.050465018 0.011477531
000270 bc a9 b2 3d 94 45 af bc 30 9c 7c 3d 10 a5 a1 3c
       0.087237805 -0.021395482 0.06167239 0.019732028
000280 95 65 4d 3a f6 2d 37 bc fd d4 16 bd 72 68 81 bd
       0.00078352663 -0.011180392 -0.036824215 -0.063187495
000290 e1 4f d2 3d 8a 69 de bc 60 7b 43 3d fb 4c 71 bd
       0.10269142 -0.027149934 0.04772508 -0.058911305
0002a0 1f 2f 8f bd 62 9a 75 bc dc 56 82 3c 89 a9 bf bc
       -0.069914095 -0.014990421 0.015910558 -0.02339627
0002b0 aa 8e 9b 3d d5 33 b6 3d f9 d5 9f 3d 5f 01 76 bc
       0.075955704 0.08896605 0.07804484 -0.015014975
0002c0 e9 fc 2d bd e1 ec 99 bd e8 ec 0d 3c a4 0c 92 bd
       -0.042477522 -0.07515884 0.00866244 -0.07131317
0002d0 b8 b6 c0 bd 31 b6 49 bd 2e 67 18 bd 83 5d 9c 3d
       -0.09409851 -0.049246017 -0.037207775 0.076350234
0002e0 85 09 88 3c 98 48 ca 3d b0 ac 2f 3d fc 33 39 3c
       0.016606102 0.098771274 0.042889297 0.011303898
0002f0 2f 3f 97 3c 2c 73 97 3d a2 7d 1d bb 8d f3 a9 bc
       0.018462745 0.07395014 -0.0024031182 -0.020746017
000300 9a 56 6d bd 65 93 4b bc a2 49 85 3b a6 35 3a bd
       -0.057943918 -0.012425278 0.0040676156 -0.04546132
000310 be 9f 3c bd 03 6f 02 bd c2 6b 9e bd 3a 83 92 bd
       -0.04605078 -0.03184415 -0.07735397 -0.07153936
000320 f8 2e 18 3c 01 91 73 bd 21 d2 eb 3d 31 ce c1 3b
       0.009288542 -0.05946446 0.11514688 0.0059144725
000330 ed 5b cb 3d 7b 29 5e 3d f7 54 65 3d 30 4f fb 3c
       0.09929643 0.054238778 0.055989232 0.030677408
000340 a1 e0 07 bd 8b f2 fc bc f0 36 0e be 7e 77 e1 3c
       -0.033173207 -0.030877372 -0.13888144 0.027522799
000350 bd 9f a2 bd c2 12 8c 3c 97 5c 6d 3d e8 83 63 3d
       -0.07940624 0.017098788 0.05794963 0.055545717
000360 ea 66 4f bd 24 3d 30 bd 27 41 f2 3d 91 ed 57 bd
       -0.050635256 -0.04302706 0.11828833 -0.052716795
000370 3e d5 9e 3d 25 c5 a2 bc c8 ca dd 3d 81 c4 01 3e
       0.077555165 -0.019869396 0.10829693 0.12672617
000380 fc 44 a2 bc 23 67 2b 3d af c0 c0 3c 59 16 fd bd
       -0.019808285 0.041846406 0.023529379 -0.12357778
000390 0b 19 41 3d ed 9e b8 bc 41 f9 22 3d ca c7 0a 3c
       0.047143023 -0.02253672 0.03978849 0.008470485
0003a0 66 e6 59 bc 79 e3 c0 bc bb f0 39 bd 8c 1b 54 bc
       -0.01329956 -0.023545967 -0.045395594 -0.012946021
0003b0 24 dc 4a bc 23 4a 8c bc a7 3c 11 3d a2 a3 5a 3b
       -0.012381587 -0.017125195 0.035458233 0.0033361693
0003c0 13 2d 25 bb 58 a8 c6 bd c1 0e d3 bd 92 03 9a 3b
       -0.0025203868 -0.09700078 -0.103055485 0.0047001326
0003d0 62 ff 23 bc ad 13 ab 3c e9 83 12 bd ac f4 be bd
       -0.0100096185 0.020883406 -0.03577033 -0.09324011
0003e0 eb 10 35 bd e8 14 da 3b 30 cd 61 bd e1 ee dc 3d
       -0.044205587 0.0066553243 -0.055127323 0.1078775
0003f0 f2 41 e4 bc f1 95 6d bd 16 cf 50 3d 59 c3 bb bc
       -0.027863476 -0.058004323 0.050978743 -0.022920297

sequential/dense_1/MatMul f4 [3, 64]
000000 fb 15 25 be 80 4a 48 3d 6d 4d 93 be 4c d2 31 3e
       -0.16121666 0.048899174 -0.2877001 0.17365378
000010 dc e7 36 3e b7 1f 7c 3e 45 4f ef 3d c9 97 82 be
       0.17861885 0.24621473 0.11685041 -0.25506428
000020 1b 0c 47 3e d8 4c 90 3e 9e 23 9b 3e 43 48 5a be
       0.19438212 0.28183627 0.3030061 -0.21316628
000030 30 66 96 be 72 71 8b be 28 bd 8c bd 1a 6f af be
       -0.29374838 -0.2723499 -0.06872016 -0.3426445
000040 da f8 9f be 0b d0 05 3e 6c d0 1e 3e 86 36 3f 3e
       -0.31244546 0.13067643 0.15509194 0.18673143
000050 5b 64 fd bd 75 fe 90 3e 87 20 5a be fb e9 d2 3d
       -0.12372657 0.28319135 -0.2130147 0.102985345
000060 59 38 89 3e 43 6f 42 3e 71 bf 84 3e af 3d 87 be
       0.26800802 0.18987755 0.25927308 -0.26414248
000070 d3 78 29 3b f5 43 86 3d 26 49 73 3d 39 76 6d be
       0.002585937 0.065559305 0.05939593 -0.2318963
000080 a5 c3 90 be cb 8c 6b 3e 29 94 df bd a1 3c 39 3e
       -0.28274265 0.23002927 -0.10916931 0.18089534
000090 57 fc 8c 3e 0b 50 63 3e 14 d7 9d 3a a7 a2 03 3e
       0.2753627 0.22198503 0.0012042248 0.12855016
0000a0 97 67 55 be 54 7e 2c be b9 af ea bd 43 b6 31 3e
       -0.20840298 -0.16845065 -0.11459298 0.17354684
0000b0 8b a8 58 3d c7 2e ab 3d 50 92 ea 3d 4b 82 9f 3e
       0.05289511 0.083585314 0.11453688 0.31154093
0000c0 c4 a8 83 be ac 25 06 3e ca 9c 7d 3d 5e e4 a9 bd
       -0.25714695 0.13100308 0.061917104 -0.08295511
0000d0 ec 6e 8d 3e 20 71 59 be 8f a7 50 be 42 51 7a 3e
       0.2762369 -0.2123456 -0.20376419 0.2444506
0000e0 e8 d7 f0 bd 78 22 38 bc e0 2c a5 be 5f 73 6d 3e
       -0.11759931 -0.011238687 -0.322608 0.23188542
0000f0 9d 3c 69 be 6a 7b 87 be 9b e0 38 be 5c 9b 42 be
       -0.22777028 -0.26461345 -0.1805443 -0.19004577
000100 47 06 1b be c3 96 a0 bd f4 5d 36 be dd fc 1a 3e
       -0.15139113 -0.078412555 -0.17809278 0.15135522
000110 07 aa 23 be 5c 54 d0 3d e4 f5 38 3e 39 ff 16 be
       -0.15982829 0.1017234 0.1806255 -0.14745797
000120 0a 61 28 be 46 c1 a2 be a2 7a b0 3c 05 10 20 be
       -0.16443267 -0.3178808 0.02154285 -0.15631111
000130 31 13 08 3e 19 25 88 bc 2f f2 2f be 4e 6f fc 3d
       0.13288571 -0.016619252 -0.1718223 0.12325917
000140 15 a6 b6 3d 62 56 a7 bd 9f cd 9a bd 64 65 25 be
       0.089183964 -0.08170773 -0.0755875 -0.16151959
000150 3a 0c 6c be e1 18 89 3e e7 0f f1 bd 2f 1c 86 3e
       -0.23051539 0.26776794 -0.11770611 0.26193377
000160 72 b4 76 be 54 67 82 bd df c9 c0 3d 5b 03 62 be
       -0.24092272 -0.063673645 0.09413504 -0.22071593
000170 73 35 ba bd 57 e3 79 be d8 6b 12 be cb e8 b1 bc
       -0.09092226 -0.2440313 -0.14298952 -0.02171745
000180 0d d2 42 bd 03 e6 f4 bc 5b 9b b2 bd 16 f7 09 3e
       -0.0475636 -0.029894834 -0.08721038 0.13473162
000190 d6 9e b7 3d 33 d2 6a 3d aa 19 90 be d4 c7 81 be
       0.089658424 0.057329368 -0.2814458 -0.2534777
0001a0 f3 4d 04 3d d3 05 8d be 6c ca 5b be d9 ff 81 3e
       0.0323009 -0.27543506 -0.21463937 0.2539051
0001b0 1a f2 0f 3e 50 ff 8d bd 4c f3 9a 3e 27 fb 80 3e
       0.14057198 -0.069334626 0.30263746 0.25191614
0001c0 89 6c af bd 99 96 28 3e ec 31 49 3e cf c1 53 be
       -0.08565623 0.16463698 0.1964795 -0.20679401
0001d0 3c d2 36 3e a9 01 14 3e 7c 18 87 3d 91 1f 67 be
       0.17853636 0.14453758 0.06596467 -0.22570635
0001e0 eb 33 72 be 34 42 61 3e bf 76 fe 3d e3 bd 2b 3e
       -0.23652618 0.2199791 0.12424993 0.16771655
0001f0 07 63 49 be ac 41 b1 bd 71 c9 57 3e e1 74 49 bd
       -0.19666682 -0.08655104 0.21072938 -0.04918373
000200 39 ee 90 3e 49 78 59 be 26 50 01 3e b8 56 15 be
       0.2830675 -0.21237291 0.1262823 -0.14583862
000210 12 22 e9 bb b9 82 aa bd 9f 6d 6b be 94 7d 37 3c
       -0.007114657 -0.083257146 -0.22991036 0.011199374
000220 24 5e 76 3d 43 c1 52 bd b4 9b ce 3d 55 aa df 3d
       0.060148373 -0.05145384 0.10088292 0.1092116
000230 4a 6d ea bd 81 46 da 3c 9d 10 77 3c ac 34 88 3d
       -0.114466265 0.026644947 0.0150796445 0.06650671
000240 0a 50 6a be 67 88 8f 3e 30 36 09 3e d2 44 b6 bd
       -0.22882095 0.28033754 0.13399577 -0.08899845
000250 ad a6 49 be 93 32 a8 3d ff 6f 07 3e 63 cf 02 be
       -0.19692488 0.08212771 0.13226317 -0.12774424
000260 ae f9 2a be d4 3b 1c be 80 39 2b 3e e0 6b 90 3e
       -0.16696808 -0.15257198 0.16721153 0.28207302
000270 73 f4 06 3e 88 5e 88 be 20 ba 52 3e 16 3c 6b bd
       0.13179187 -0.26634622 0.20578814 -0.05743035
000280 38 f5 05 be 4e 64 9d 3e ac 27 86 3d 70 95 05 bd
       -0.13081825 0.3074059 0.065505356 -0.032613218
000290 86 e0 92 bd 27 32 a5 be ef f4 6f be 56 8f 93 3e
       -0.07171731 -0.32264826 -0.23433279 0.28820294
0002a0 2a 46 a6 be 57 d5 d5 bc 89 19 10 be 81 f5 81 3d
       -0.32475406 -0.026102705 -0.14072241 0.06345654
0002b0 f4 b0 3c be 2c c5 0f 3e d8 f7 1e 3e 2a 8d 81 bd
       -0.18426877 0.14040059 0.15524232 -0.06325753
0002c0 46 53 97 3e 71 56 8d 3e e1 ad 84 3e 02 88 fd 3d
       0.2955572 0.27605012 0.2591391 0.12379457
0002d0 e9 e7 27 3d b8 71 a9 3d e0 5c 4e be 54 fe b9 bd
       0.04099265 0.08273643 -0.20152617 -0.09081712
0002e0 18 a0 17 3e af 51 56 bd b0 0d a1 3b f8 e5 87 be
       0.14807165 -0.052323993 0.0049149618 -0.2654264
0002f0 f1 d1 ed 3c 5f f8 19 3e 2a af 4c 3e 3a 91 83 be
       0.029030772 0.15036152 0.19988695 -0.25696737

sequential/conv2d/Conv2D f4 [16, 3, 3, 3]
000000 67 6d 24 3e 00 45 18 be 20 ea 16 be 56 9f 74 bd
       0.16057359 -0.14870071 -0.14737749 -0.059722267
000010 e9 0f b7 3d 17 30 8a ba ac 52 1f bd 60 1a d4 bd
       0.089385815 -0.0010542896 -0.0388972 -0.10356593
000020 88 14 28 3e f4 2c 2f be ca a4 c6 3d 4a 30 7d bd
       0.16414082 -0.17106992 0.096994 -0.06181363
000030 5e d6 34 be 95 d1 32 3d 0d 96 18 be e8 28 4b 3d
       -0.176599 0.043656904 -0.1490099 0.049599558
000040 40 f8 17 3d 5e c7 43 bd d4 b5 f5 3d 0e 4d 30 be
       0.037101984 -0.047797553 0.119975716 -0.17216894
000050 af 98 04 3e b8 d4 3c bc 32 67 84 bd f2 ea 8f bd
       0.12948869 -0.0115253255 -0.064649954 -0.07027234
000060 c3 90 0c be 9f d1 01 be d0 e0 25 bd d4 b6 10 3e
       -0.13727097 -0.1267762 -0.0404976 0.14132243
000070 66 1c 39 3e 95 c0 15 bd 25 32 ce bd eb 24 1b 3e
       0.1807724 -0.036560614 -0.10068158 0.15150802
000080 78 95 44 3d d6 38 0f be 3f b4 82 3d de 3b f4 3a
       0.047994107 -0.13986525 0.063820355 0.0018633564
000090 32 7a 34 3e c4 9a 4f bd ad 83 48 3d 2c d3 27 bd
       0.17624739 -0.050684705 0.0489537 -0.040972874
0000a0 fc 7c 4b 3e 09 71 e0 bc a8 62 22 3c 2b 50 10 3d
       0.19871897 -0.02739765 0.009911217 0.035232704
0000b0 92 40 af 3a e4 4d 29 be 3c cd 03 be 72 37 d8 3d
       0.0013370684 -0.16533619 -0.1287126 0.1055745
0000c0 65 1d 03 be 7e cc fc 3d 88 c5 f2 bd d3 dd a9 bd
       -0.12804182 0.12343691 -0.11854082 -0.08294263
0000d0 32 2c 10 be af 1f c8 bd 6a f3 2c bc d5 00 20 3c
       -0.14079359 -0.09771668 -0.010556081 0.009765823
0000e0 a0 52 50 bd df 17 c2 3d e7 b2 0c 3e 1f 7e e4 bd
       -0.050860047 0.09477209 0.13740121 -0.11156868
0000f0 64 6f 3b 3e 2b 7e 1f 3e f7 da 07 3e e1 dc c1 3d
       0.18304211 0.15575473 0.13267122 0.094659574
000100 d6 8a 18 3e ac 5d 24 be dc 32 cb 3d 47 06 06 3d
       0.14896712 -0.16051358 0.0992181 0.03272083
000110 54 a3 e8 bd 8f c4 1a 3e 96 a0 d0 3d 09 ba fa bd
       -0.11359277 0.15114044 0.10186879 -0.12242515
000120 42 9f b4 bc 39 1a cd 3d a2 19 37 3e 6c 46 cb 3c
       -0.022048596 0.10014767 0.17880872 0.024813853
000130 fe 05 af bd 80 5b 88 3d a5 e1 59 3d 62 78 7d bd
       -0.08546065 0.06658077 0.053193707 -0.061882384
000140 7a 82 d9 bd 26 f3 0b 3e 6d c7 a7 bd b6 dd 1a 3d
       -0.106205896 0.13666973 -0.08192334 0.037809096
000150 92 2c f1 3d 75 0e 50 3e e1 f1 3c 3d 70 6f b3 bd
       0.11776079 0.20318015 0.04612911 -0.087614894
000160 53 68 d8 3d ed 39 54 3e c6 14 10 3e 42 e1 cc bd
       0.10566773 0.20725222 0.14070424 -0.10003902
000170 33 6c 4b 3e 97 31 54 3d 0d 8e 98 bd e7 d3 5d 3e
       0.19865493 0.051805105 -0.07448969 0.21662866
000180 a8 d0 50 bd 53 95 85 3c 61 c8 0c 3e 41 4b 10 be
       -0.05098024 0.016306555 0.13748313 -0.14091207
000190 11 82 5e bd 81 f8 46 3c 4a bd d1 3c 1a 55 7a bd
       -0.05432326 0.012144209 0.025602955 -0.061116315
0001a0 0d 40 5f 3c 31 23 f6 3d 64 07 1d 3e f2 92 09 3e
       0.013626111 0.12018431 0.1533485 0.13434961
0001b0 b3 ad dc 3d ba e6 26 be a9 f9 f3 bd 2d 96 20 3e
       0.10775318 -0.16298953 -0.11912853 0.15682288
0001c0 3b ca 22 be 4e 03 2f 3e 66 5c 6f 3d da 76 33 3e
       -0.15897457 0.17091104 0.058437727 0.17525807
0001d0 6a bc b3 3d a1 18 0b 3d 75 2b 61 3d 12 3a 22 be
       0.087761715 0.033959035 0.054973084 -0.15842465
0001e0 4d 5e 55 bd e3 39 09 bd 70 9d ad bd a6 a4 c7 3d
       -0.052091885 -0.03350247 -0.084772944 0.09748201
0001f0 c2 e4 a1 bc 88 2e 27 bc 02 17 6e 3d 7f 68 b8 bd
       -0.0197624 -0.010203965 0.05812741 -0.09004306
000200 f8 7e 1b 3c 95 11 20 bd 85 71 f0 bc 1e 60 a3 bc
       0.009490721 -0.039079268 -0.029351005 -0.019943293
000210 ac dd 07 be 57 16 74 3d ec 44 2f be e0 0f 6d bc
       -0.13268155 0.059591617 -0.17116135 -0.014469117
000220 f2 f5 1c 3e 8d e3 16 3e 39 1e bf bd 06 29 1f be
       0.15328196 0.14735241 -0.093319364 -0.15542993
000230 5d 2a e7 bd da d2 22 3d 5b 9e 36 be 2c 77 cf bd
       -0.11287377 0.039751865 -0.17833845 -0.10130152
000240 ba b3 4f 3d 1b 43 1c be 67 4e 9e 3d 42 bf 3f 3e
       0.05070851 -0.15259974 0.07729798 0.18725303
000250 d7 e7 a5 bd d5 0c 38 bd c7 83 f6 3d f3 09 f8 3c
       -0.081008606 -0.044934113 0.12036853 0.030278182
000260 ac 53 ad 3d 4c 65 d6 3d 3d ba 12 be 39 01 f5 3b
       0.08463225 0.104685396 -0.14328857 0.0074769524
000270 db 49 d8 bd e2 ec 12 3e a3 87 36 bd 17 e6 29 3d
       -0.10560962 0.14348176 -0.044562947 0.041479196
000280 84 56 19 bd b2 c9 6a bd 40 0e 90 3d 2e d0 f9 3d
       -0.037436023 -0.057321258 0.07033968 0.1219791
000290 4a b3 cb bc 36 8d a4 bd 60 52 04 be 77 27 fb bd
       -0.024865765 -0.08034746 -0.12922049 -0.12263387
0002a0 fc 10 48 3e 4b a8 5b 3e dd 3c 81 3d 42 c3 1a be
       0.19537729 0.21450917 0.06310437 -0.15113547
0002b0 ca 22 12 3d 20 ad e2 3d 70 f9 e7 bd 11 83 79 3d
       0.03567771 0.11068177 -0.11326873 0.06091601
0002c0 a8 c1 f6 3d 20 46 64 3d ad e1 4c 3e c3 f4 6d 3e
       0.12048656 0.05573094 0.20007963 0.232379
0002d0 11 f7 ff bd bc a0 e9 3d bf 96 00 be 74 1f 2c 3e
       -0.12498296 0.11407611 -0.12557505 0.16808873
0002e0 96 c1 97 3c 40 6e 46 bd 58 ba f8 bd c5 d0 5b 3e
       0.018524926 -0.048444986 -0.12144917 0.21466358
0002f0 33 52 d5 3d 7a 87 a2 bc a7 d7 2c be 5d 0e 42 3e
       0.10416069 -0.01983999 -0.1687914 0.18950792
000300 2a 33 5d 3c 8d 6a 06 bc bd 51 58 3c 7a 5d 66 3c
       0.013500968 -0.008204115 0.013203082 0.0140603725
000310 65 c3 21 bd c1 e9 0d be 13 fc a4 bd 94 e9 5f 3d
       -0.039492983 -0.13858701 -0.08055892 0.054666117
000320 98 b8 31 3e e4 43 27 be 41 bb 47 3c 35 c5 d0 bd
       0.17355573 -0.16334492 0.012190641 -0.10193864
000330 bb ce 4d 3d cd ea a5 3d 9f 31 fd 3d e3 3f ba bd
       0.05024598 0.08101425 0.1236298 -0.09094217
000340 b0 43 18 bd 33 f0 a8 3c c3 3f 46 be ad 29 e6 3b
       -0.037173927 0.020622348 -0.1936026 0.007024011
000350 5c b6 13 3e 0e 18 2a be 52 ae 98 3c e2 3a fd bc
       0.14425033 -0.16610739 0.01863781 -0.030911867
000360 bf 6d 9f bd b9 17 5a 3e b8 b6 53 3e 0c f8 b1 bd
       -0.07784604 0.21298112 0.2067517 -0.08689889
000370 88 af 28 be 73 d9 1f 3e b0 7c f6 bd 21 ff ab bd
       -0.1647321 0.15610294 -0.12035501 -0.08398271
000380 d5 1d 40 be 98 2d ca 3d 98 18 ed bd e0 10 e8 3d
       -0.1876138 0.098719776 -0.115769565 0.11331344
000390 5d 71 3a 3e 18 47 a3 bd d6 8c 30 3d 57 c0 00 be
       0.18207307 -0.079725444 0.04310306 -0.12573372
0003a0 f6 a6 48 bd 74 a8 0c bd 54 b6 15 3e ee d1 c6 bd
       -0.04898735 -0.034340337 0.14620334 -0.0970801
0003b0 55 b6 3c bd 8d 1a 1c bc ef b7 3e 3e 69 f8 b2 bd
       -0.046072323 -0.009527815 0.18624853 -0.08738787
0003c0 cd b2 f0 bd 79 da 42 3d b7 ea 89 bc 5c b9 33 bd
       -0.117528535 0.047571633 -0.016835554 -0.043877944
0003d0 53 67 ac bd 11 2c de 3d 04 a4 22 be 93 2a 1f be
       -0.08418145 0.10848249 -0.1588288 -0.15543585
0003e0 bc fa 90 3d 55 e4 eb bb 1f 7b 69 bd 18 01 8e bd
       0.07079074 -0.00719885 -0.057002183 -0.06933802
0003f0 7c 40 24 be e2 e4 83 3d 5d 44 72 3d 38 b2 e9 bd
       -0.16040224 0.0644014 0.059147228 -0.11410946

sequential/conv2d_1/Conv2D f4 [16, 3, 3, 16]
000000 39 36 53 bd f9 90 74 3d ef fd dd 3d 21 48 d9 3d
       -0.051565383 0.05970857 0.108394496 0.106094606
000010 0c 2b ef 3d 73 a6 c4 3d 6b 02 a5 3d a0 6f 0c 3d
       0.116781324 0.0960206 0.08057102 0.03428614
000020 22 28 0c be 77 bf fb bb 93 05 cd bd 07 f6 01 3d
       -0.13687184 -0.0076827365 -0.10010829 0.03172877
000030 26 67 b4 3d d9 84 61 bc 54 8e 03 3e 1b 66 06 3e
       0.088087365 -0.0137645835 0.12847263 0.13124888
000040 90 b0 c3 3c 9b db 8a bd c7 37 f4 bd 37 17 cc 3d
       0.023887902 -0.06780168 -0.11924701 0.099653654
000050 36 51 5d bd e9 1d c6 bd b1 6f 8e bd 50 c3 e7 3b
       -0.054032527 -0.09673674 -0.06954897 0.0070728436
000060 5d 7f f7 3d 52 a4 92 bd 4c ba cd 3d 04 b1 d8 3d
       0.120848395 -0.07160248 0.10045299 0.10580638
000070 57 b9 a9 bd f1 b9 55 bd b9 66 76 3d 82 93 34 3d
       -0.08287304 -0.05217928 0.060156558 0.044085987
000080 f2 25 2a bd 1a 54 26 3e b0 93 77 bd 23 03 5d 3d
       -0.041540094 0.1624302 -0.06044358 0.05395807
000090 73 a9 a7 3d 59 ce 34 3d f4 81 be bd 7e 72 b8 3d
       0.08186617 0.0441421 -0.0930213 0.09006213
0000a0 bc bb 2e 3e ce 4a 7d bb 1c 9b 89 3d 52 2e e8 3d
       0.17063802 -0.0038649323 0.06719038 0.1133696
0000b0 11 45 c7 3d c2 f2 f9 3d 14 b9 0f 3d 77 fa 02 3d
       0.0972997 0.122045055 0.035088614 0.031977143
0000c0 29 4f a2 bd 30 75 70 bd 40 fd 0c ba 10 3d fe 3d
       -0.07925255 -0.05870551 -0.00053783134 0.124139905
0000d0 7b bb 58 3e 61 93 0f 3e ef 71 48 3d 95 50 5e bd
       0.21165268 0.14021064 0.04893678 -0.054276068
0000e0 44 54 59 3b 60 6c af bd d4 e9 02 be 84 aa 55 3d
       0.0033161798 -0.08565593 -0.12784511 0.05216457
0000f0 c6 87 34 3c 65 e0 84 bd 84 78 52 3d af 7d f0 3d
       0.011018699 -0.06488112 0.051384464 0.11742722
000100 e1 7d 97 3c 48 fb b5 3d 5c db e8 3d 26 b1 17 3e
       0.01849264 0.08885819 0.113699645 0.1481367
000110 e4 e2 29 3e 10 00 85 bd 4c c0 1a 3e bc 38 3d bd
       0.16590458 -0.064941525 0.15112418 -0.046196684
000120 26 47 f3 bd 0c e6 1c 3e 24 b1 3f bd 79 fe 20 3e
       -0.11878805 0.15322131 -0.046799794 0.15722074
000130 dc f8 9a 3c be 6c c4 bd b3 cb 20 3e 44 3e a3 3d
       0.018917494 -0.095910534 0.15702705 0.079708606
000140 64 c4 0b 3e 12 ea 3d 3d 9b 40 4e 3d f8 a3 ab 3b
       0.13649136 0.046365805 0.05035458 0.0052380525
000150 e0 c4 41 bd e2 21 d1 bc 86 fa 07 3e e0 a6 90 bd
       -0.047306895 -0.025528852 0.13279161 -0.07063079
000160 6e 59 62 bd fc e0 81 bd f7 a9 b5 bd ec ac 11 bd
       -0.055261068 -0.063417405 -0.08870309 -0.0355653
000170 cd 11 0e 3e bc 26 0b 3e 14 b6 2d bd b6 8e 0a 3d
       0.13873978 0.13588995 -0.04240997 0.033827506
000180 a7 c6 49 3c df 4e b8 bd 1d f0 09 3e 57 4f d5 bd
       0.012315429 -0.089994185 0.13470502 -0.104155235
000190 7c 21 3f 3e 01 ca 82 3d fa 8a db 3a 7f b2 f6 bd
       0.18665117 0.063861854 0.0016749792 -0.12045764
0001a0 d5 0f 3c bd fc d6 fa 3d a6 2a 7a 3d 89 ce ac 3d
       -0.045913536 0.12248036 0.06107583 0.08437831
0001b0 52 57 b9 3c 06 52 0b be 43 8e a5 3d 92 19 33 3e
       0.022624645 -0.13605508 0.08083775 0.17490223
0001c0 7c c7 d0 bd 1d 83 53 3d 99 fd d2 bd 28 83 e7 bd
       -0.101942986 0.05163871 -0.10302276 -0.11304313
0001d0 e2 7f f1 3c e1 bd 1e 3e ec eb 0f 3d 7a 80 fb 3d
       0.029479925 0.1550212 0.035137102 0.12280364
0001e0 06 c1 d8 bc 6d 1b f5 bc 8a 2f af 3c 08 cd 2b 3e
       -0.026459228 -0.029920304 0.021384973 0.16777432
0001f0 a2 97 ef 3d 43 22 ac 3d 42 6d c5 3d 0f 55 18 3e
       0.116988435 0.084049724 0.0963998 0.14876197
000200 82 05 e6 bd ae 95 e7 bb 23 a9 d7 3d e4 c6 06 3e
       -0.11231519 -0.0070674038 0.10530307 0.13161808
000210 a2 5c 5f 3d b1 70 0f 3e 2f 7d d8 bc b6 ea d5 3d
       0.0545317 0.14007832 -0.02642688 0.10445158
000220 a0 ce 0f 3e 39 03 d8 3d 21 42 a6 3d ee 11 dc 3d
       0.14043665 0.1054749 0.08118082 0.10745607
000230 f7 e4 1d 3e d4 c3 20 3e 52 77 55 3e ed de bc 3d
       0.15419374 0.15699703 0.20846298 0.09222207
000240 d6 61 d5 3d ca 7e 04 3e 3d 9d cf 3d 93 25 98 3c
       0.10419051 0.12938991 0.10137413 0.018572604
000250 ac d3 a6 bd 63 8d 20 be 1d 13 70 bd 81 b3 17 be
       -0.08145842 -0.15678935 -0.058611978 -0.14814569
000260 c1 88 cb bc 9a 7d 75 3d 5d 7f 91 3d ee ca f0 3c
       -0.024845483 0.059934236 0.07104371 0.02939364
000270 a1 c5 00 3e d2 ad 0d 3e 13 47 51 3e 48 ec 81 bd
       0.1257539 0.13835838 0.20437269 -0.06343895
000280 29 84 11 be 42 45 34 3e 3d 1b f2 3d a2 b0 b4 3d
       -0.14210571 0.17604545 0.118216015 0.088227525
000290 ce 0d 7a 3c 73 6b 02 bd c9 91 87 bd 5c 62 bc 3d
       0.01526208 -0.031840753 -0.06619603 0.09198448
0002a0 57 b6 0f 3e 08 db 0b 3e f9 b8 c7 3d 42 28 23 be
       0.14034401 0.13657773 0.097520776 -0.15933326
0002b0 fb fd a4 3d 19 4b bd 3d b4 75 64 3d 23 a5 78 3d
       0.080562554 0.09242839 0.055776313 0.06070436
0002c0 5f e4 f3 bc 7a d8 20 3e 49 71 97 bc df d1 2b bd
       -0.029771982 0.1570758 -0.018486636 -0.041948196
0002d0 1f ca d5 3d ed b9 41 3e a1 50 78 bd af af 09 3e
       0.10438942 0.18918581 -0.06062377 0.13445924
0002e0 44 49 71 3d 6a d8 ae 3d e8 b0 00 3d 5d 66 da bd
       0.058907762 0.085373715 0.03141871 -0.106640555
0002f0 9c b8 06 3e ac 04 d3 3d 98 96 43 3e 22 54 c8 bb
       0.1315636 0.103036255 0.19100416 -0.006113545
000300 6f 08 ad 3d 11 27 d8 3d 9a 4f 44 3d 57 06 87 3d
       0.08448874 0.10554326 0.047927476 0.06593006
000310 72 86 00 3e 80 55 0e be 99 07 d4 bd 2c 2b 6a bd
       0.12551287 -0.13899803 -0.10353012 -0.05717008
000320 e9 d1 de bd 19 6b 8c bd 16 1c 01 3e 45 bd 4f 3d
       -0.10879881 -0.06856365 0.1260837 0.05071761
000330 b8 46 d6 3c 88 b3 fe 3d d3 b7 f0 bc 3e f6 6d 3e
       0.026156768 0.124365866 -0.02938453 0.23238465
000340 77 f8 c9 bd 31 cd 5b 3e 40 c7 f0 bd 8c 0c 04 be
       -0.09861844 0.21464993 -0.11756754 -0.12895411
000350 e5 66 39 3e 2a de 46 3e a0 45 5c 3d 42 2f d1 3d
       0.18105657 0.19420686 0.053777337 0.10214092
000360 63 29 77 bd e5 32 cc bd 40 90 94 3c 98 db ba bd
       -0.060342204 -0.09970645 0.01813519 -0.091239154
000370 92 c4 db 3d cf 14 a8 3d 31 34 a8 3d 98 6b 23 3e
       0.10730852 0.08207094 0.0821308 0.15959013
000380 a8 49 ea 3d 59 ff ba 3d af 55 60 3d 7e 39 08 bd
       0.1143983 0.09130735 0.054769214 -0.033257954
000390 ec be f9 3d 73 88 c9 bb 77 c6 34 bd f9 7d 0b 3d
       0.121946186 -0.006150299 -0.044134583 0.034055684
0003a0 25 d5 37 3e c1 22 d8 bd 49 20 11 bb 84 58 04 bd
       0.17952402 -0.10553504 -0.0022144488 -0.032310978
0003b0 ef bb 41 3e 59 e7 98 bb 4d a3 1c 3e f1 c1 e2 bc
       0.18919347 -0.0046662507 0.1529667 -0.02768037
0003c0 07 2b 30 3a 89 1e 64 3e db 50 a4 bc 5c e0 c7 bd
       0.0006720279 0.22277273 -0.020058086 -0.0975959
0003d0 bd ed 03 3e c6 55 16 3d 4c 03 00 3c bd 71 0b be
       0.12883659 0.036702894 0.007813286 -0.13617606
0003e0 cf 7d e9 3d 01 df 20 3d 16 70 86 bc e2 98 fe bc
       0.11400949 0.039275173 -0.016410869 -0.03107876
0003f0 cf 6f 75 3d 4c b5 1e bd 48 5e 4b 3e 02 ef 89 3c
       0.059921082 -0.038747117 0.19860184 0.0168376

sequential/conv2d_2/Conv2D f4 [32, 3, 3, 16]
000000 29 69 05 3e 45 78 d1 3d ea af 49 3c ee 82 66 3c
       0.13028397 0.10228018 0.012310008 0.014069302
000010 15 dd 86 3d 2f 04 d0 bd 37 a6 fc 3d 90 36 a4 3c
       0.06585137 -0.10157048 0.123363905 0.020045549
000020 90 83 db 3a 4c 68 6a 3d 39 ad e1 3d 4c 41 dc 3d
       0.0016747583 0.05722837 0.11019368 0.10754642
000030 fc 04 ae 3d a2 db ed 3d f7 3c 68 3d f2 d6 06 3d
       0.084970444 0.11614157 0.056698766 0.03291983
000040 b1 8c 48 bd 9c b1 5d 3d 42 48 a1 bc 59 a3 5b 3d
       -0.0489623 0.05412446 -0.019687776 0.053622577
000050 40 d4 22 bd ec bc 94 3c 3f ba da 3d 63 73 c9 3d
       -0.0397532 0.018156491 0.10680055 0.098364614
000060 44 e7 33 3d 6d d9 b8 3d 7c 77 cf bd f8 00 d5 3d
       0.043921724 0.09025846 -0.10130212 0.104005754
000070 2c aa 12 bd 7d 81 a2 3d 5a b3 8e bd a4 cf 84 3c
       -0.03580682 0.07934854 -0.06967802 0.016212292
000080 73 4a 8a 3d 73 ab 4e bd 3c 08 a6 bd 51 a2 08 3e
       0.06752481 -0.050456475 -0.08107039 0.13343169
000090 61 d1 b4 bd 51 cd b6 3d 32 08 17 3e c1 27 15 3e
       -0.08828998 0.0892588 0.1474922 0.14565946
0000a0 78 5f 77 3d 82 a1 80 bc 34 8a a3 bd 62 18 04 3d
       0.06039378 -0.015702013 -0.079853445 0.032249816
0000b0 75 83 a9 3d 36 50 0e 3e e5 80 9a bd b5 93 c0 bd
       0.082770266 0.13897786 -0.07544116 -0.09403173
0000c0 ee c3 0d 3e 5d 81 d8 3d f2 13 fe 3d cb dc 68 bd
       0.13844272 0.10571549 0.12406148 -0.05685119
0000d0 89 6b 93 3d 37 03 df 3d 4c e4 39 3e d2 bd bc bc
       0.07198245 0.10889285 0.18153495 -0.023039732
0000e0 72 98 81 3d 41 b4 10 3e 73 36 cf bc 98 8a 54 3d
       0.06327905 0.14131261 -0.025294518 0.051889986
0000f0 9c 62 84 bd 31 57 74 3d 0e 5a 97 3d 5c e0 7e 3c
       -0.06464121 0.059653465 0.073902234 0.015556421
000100 18 08 30 3c 51 6b 8d 3d 81 79 25 bd 8d b3 3e 3d
       0.010744117 0.069052346 -0.04039908 0.04655795
000110 48 0a 49 bd 90 cf e4 bb e2 5e 0d 3e a4 f7 a6 3d
       -0.04908207 -0.006982751 0.13805726 0.081527025
000120 03 7a 3a 3e fc d8 a8 bc ec ef 70 3d ce c5 49 3e
       0.18210606 -0.020611279 0.058822557 0.19704363
000130 92 1a 6b bd 98 61 d3 3d 64 96 85 3d 0f b0 b2 bd
       -0.057398386 0.10321349 0.06522825 -0.08724987
000140 69 a7 b0 bd 14 52 03 bd c6 78 be 3d 46 bc 2e 3e
       -0.08625681 -0.032060698 0.093003795 0.17064008
000150 f7 da a3 bd 46 4c 16 3d 39 9b 10 bd f4 70 b4 bd
       -0.080007486 0.036693834 -0.03530428 -0.088106066
000160 fd 4b 9b 3d 1b 85 8d 3d c2 86 6f bc d9 01 00 3e
       0.07582853 0.069101535 -0.014619531 0.12500705
000170 38 fd 93 3d 18 2b 04 3d c2 77 b1 bd 9c f4 e4 bd
       0.07226032 0.03226766 -0.0866542 -0.11179468
000180 91 ac 9f bc 50 55 d8 3d 54 08 af 3d 38 93 82 bd
       -0.019491466 0.10563147 0.0854651 -0.06375736
000190 49 4f 06 3e a4 e8 bd 3c 5e ca 27 3e 18 4d 33 3c
       0.13116182 0.02318222 0.1638579 0.010943674
0001a0 71 05 ce 3c 42 ac 0a 3e a5 25 74 bd 9c 89 09 3e
       0.025149079 0.13542274 -0.059606213 0.134314
0001b0 38 90 ad 3d 60 8e 2b 3c 0e 67 a0 bd 6c 6e a2 3d
       0.08474773 0.010470957 -0.07832156 0.079312176
0001c0 58 71 bd bd 52 d6 a5 bd f4 2d bf bb 56 01 23 3e
       -0.09250134 -0.08097519 -0.0058343355 0.15918478
0001d0 57 8a f0 3d 2c 67 fe 3c 88 72 fe 3d 7f 9b e1 3d
       0.11745136 0.031055056 0.12424189 0.11015987
0001e0 99 d8 3a 3d fb 49 8e 3d 58 df cb bd 42 b3 f5 3d
       0.04561672 0.069477044 -0.09954709 0.11997081
0001f0 51 f5 0d bb 7c 4a b3 3d a4 d9 b4 bd 69 53 b7 3c
       -0.0021661113 0.08754441 -0.08830574 0.02237864
000200 67 8e d8 bd 1e c7 95 bd 47 fb 0e 3e a1 70 3b 3e
       -0.10574036 -0.07313369 0.13963042 0.18304683
000210 98 46 f5 bd db 22 bc bd e6 24 01 3e 72 76 0b 3e
       -0.11976355 -0.09186336 0.12611732 0.13619402
000220 1e 49 ce 3d e4 4c b9 bc 9d dc 7b 3c 59 02 05 3e
       0.1007254 -0.022619672 0.0153724225 0.12989177
000230 28 d9 d3 bd bf 69 eb bc d1 52 3d bc 12 a1 a8 bd
       -0.10344154 -0.028736947 -0.0115553895 -0.08233847
000240 3a 34 5b 3d 15 2b ee 3c e6 f5 cb bd d6 1a 10 3e
       0.053516604 0.029073277 -0.09959011 0.14072737
000250 5a da 41 3b ab c2 96 3d a7 d6 0f bd e5 64 c1 3d
       0.002957961 0.07361349 -0.035116818 0.09443072
000260 12 d5 cd 3d b6 37 1f 3d 07 bd e9 3d 70 9b 9a 3d
       0.100504056 0.03887149 0.11413007 0.075491786
000270 4c 78 47 bd 02 4d c8 bc 66 42 a9 bd 0e 2f 14 3e
       -0.04869871 -0.024450783 -0.082646176 0.14471075
000280 4e af 6b 3d 72 0e fa 3d 9f 4b 16 3e ab 31 54 bb
       0.05754023 0.122097865 0.14677285 -0.0032378237
000290 6c dc 24 3d 75 82 d5 bd 2d 3e 3e bd 1e 36 56 3d
       0.040249273 -0.10425273 -0.046446014 0.052297704
0002a0 6c a7 1b 3e f6 71 ac 3d d0 b2 29 bc 49 c6 f9 bb
       0.15200585 0.08420174 -0.010357574 -0.0076225144
0002b0 4f db cf 3b fe da 29 3d 6c cc fa 3c 08 06 1c 3d
       0.0063432823 0.041468613 0.030615054 0.03809169
0002c0 12 f7 0b 3e 56 86 08 3c bd 98 ee 3d cf 93 99 3c
       0.13668469 0.008332809 0.11650226 0.018747238
0002d0 61 f2 8a 3d f6 34 73 3d 25 5c a5 3d 33 dc cc 3c
       0.06784511 0.05937668 0.08074216 0.025007343
0002e0 f7 99 6e 3d 53 7a 13 3e 09 ff 8e 3d 2f e5 41 3e
       0.0582523 0.14402132 0.06982238 0.18935083
0002f0 6e 51 1f bb d9 1f 93 bd 65 30 be bd 8f ff 9c 3d
       -0.002431001 -0.07183809 -0.09286574 0.076659314
000300 97 d9 8c bb 58 ab a6 bd 8d 8c a1 bd 4f 32 fc bc
       -0.0042983997 -0.0813815 -0.07888136 -0.030785708
000310 8a 2f 2b bd 08 9b fa bc a3 6a ee bb 52 27 1d bd
       -0.041793384 -0.030591503 -0.0072758957 -0.038367577
000320 fa 38 70 bb c0 f8 5b 3d 37 d1 cc bd df 93 0b bd
       -0.0036655054 0.053704023 -0.10000842 -0.034076568
000330 a9 c9 c0 bd c8 d6 12 3e 9c 49 17 bd f1 78 80 3d
       -0.094134636 0.14339745 -0.036935434 0.06273068
000340 a2 c4 d7 3d 59 de f7 ba 9a 4c 4e 3d 05 83 2c 3e
       0.105355516 -0.0018910869 0.05036602 0.16846855
000350 65 1e 1e 3c 9c 9b e3 bc a1 90 30 3e 63 33 fb bd
       0.009650801 -0.027784161 0.17242672 -0.122656606
000360 6f ce fb 3d 8f 59 be bd 5b 13 47 3d 69 94 2b 3e
       0.122952335 -0.09294426 0.048602443 0.16755833
000370 cf c4 a3 bd c5 c4 76 3d 5b bd c2 3d bb ca 31 bd
       -0.07996523 0.060246248 0.09508773 -0.04340623
000380 9a 6b 2c 3d 51 83 3e 3d f9 89 8d 3d fc 04 d4 3d
       0.042094804 0.04651195 0.06911082 0.10352513
000390 ab e8 bc bd d4 6f d2 3c ec f2 1f 3e 0d 61 ba bd
       -0.092240654 0.02568809 0.15620011 -0.09100542
0003a0 fe 53 a0 3d f5 7a 6d bd 0c ad 63 3d 5f 5b 10 3e
       0.0782852 -0.05797859 0.055584952 0.14097355
0003b0 f6 42 90 bd ba 5f 73 bd 19 a0 c9 bd 53 34 91 3c
       -0.07044022 -0.059417464 -0.09844989 0.017725145
0003c0 b4 e7 11 3d 3d 4e 8f 3d ae 71 fe 3d 49 70 4a 3d
       0.03562136 0.06997345 0.124240264 0.04942349
0003d0 fa ef d5 3b ae bd 44 3d fb 99 c5 3d ae 1a bd 3c
       0.0065288516 0.048032455 0.0964851 0.02308401
0003e0 96 94 e3 3d 9c e6 c6 3d 5c 32 4d bc cc 57 fd 3d
       0.11112325 0.09711954 -0.012524214 0.123702615
0003f0 00 49 2f 3d a7 d7 f5 bb 41 25 8f bc 90 63 da bd
       0.042794228 -0.0075025144 -0.017473819 -0.10663521
