training/model.tflite (tflite, 165428 bytes, 10 tensors)

sequential/conv2d/BiasAdd/ReadVariableOp/resource f4 [16]
0	0xbbc46d6e	-0.0059944903
1	0x3d193c4c	0.03741102
2	0xbd50d897	-0.050987806
3	0xbd2923ad	-0.04129379
4	0x3c8ab3c2	0.016931418
5	0x3c815a52	0.015790138
6	0xbca3073e	-0.019900914
7	0x3d4d1552	0.05006916
8	0x3d1c9bd9	0.038234565
9	0x3ccc7c93	0.024961745
10	0xbd5beb43	-0.05369116
11	0xbd20c0fd	-0.039246548
12	0x3d2b7822	0.041862614
13	0x3c96e2d0	0.0184187
14	0x3c5ce7e2	0.01348302
15	0xbb1cee4b	-0.0023945745

sequential/conv2d_1/BiasAdd/ReadVariableOp/resource f4 [16]
0	0x3aec3253	0.0018020369
1	0xbc849726	-0.016185354
2	0xbb8d7240	-0.004316598
3	0x3bb6c503	0.005577685
4	0xbce9ae1a	-0.0285254
5	0x3bc985d7	0.006149988
6	0xb60398f2	-1.9609547e-06
7	0xbcb6e7ac	-0.022327267
8	0xba99d28e	-0.0011735724
9	0x3b50068c	0.0031742183
10	0xbcc16c0b	-0.02361109
11	0xbd9d4cd4	-0.076806694
12	0xbcfdee99	-0.030997561
13	0xbd0b4d51	-0.03400928
14	0xbc61b41d	-0.0137758525
15	0x3c86c18e	0.016449716

sequential/conv2d_2/BiasAdd/ReadVariableOp/resource f4 [32]
0	0x3cb034c5	0.021509537
1	0xbd96ae0d	-0.07357416
2	0xbc948a9e	-0.018132504
3	0x3d690092	0.05688531
4	0x3da26406	0.07929234
5	0x3cd44e99	0.025916385
6	0xbced8ba9	-0.02899726
7	0xbce43599	-0.027857589
8	0x3b211fad	0.002458553
9	0x3cf644f1	0.03006217
10	0xbc252c38	-0.010081343
11	0xbd4ce114	-0.05001934
12	0xbcd195bf	-0.0255841
13	0x3d30a27f	0.04312372
14	0x3d824505	0.06360821
15	0xbd14d059	-0.03633151
16	0xbc806b99	-0.015676307
17	0x3b70e235	0.0036755924
18	0xbd344439	-0.044010375
19	0xbc1965a4	-0.009362612
20	0xbd78a7a9	-0.06070677
21	0x3d408df4	0.047010377
22	0x3cd9eaa0	0.026601136
23	0x3d98eb3d	0.07466743
24	0xbd413f8e	-0.04717975
25	0xbd228c37	-0.0396845
26	0x3d4027bb	0.04691289
27	0xbc3a9eb3	-0.011390376
28	0xbd5698bd	-0.052391756
29	0xba4cd95c	-0.00078143715
30	0xbd0ffec9	-0.03515509
31	0x3c0291cf	0.007969334

sequential/dense/BiasAdd/ReadVariableOp/resource f4 [64]
0	0xbc879446	-0.016550194
1	0xbd54fecf	-0.052000817
2	0x3bee54e5	0.007273304
3	0xbdb8b4dd	-0.09018872
4	0xbdc14fed	-0.09439073
5	0xbc3b8bfc	-0.011446949
6	0xbcbe7862	-0.023250762
7	0x3d41112d	0.04713552
8	0xbca82d0c	-0.020529293
9	0x3d9887c0	0.07447767
10	0xbbdc6d84	-0.0067269225
11	0x3db26db2	0.08712329
12	0x3dcb471b	0.09925672
13	0x3c82d4f8	0.015970692
14	0xbc284685	-0.010270719
15	0xbbeefcf9	-0.0072933403
16	0x3c8556f8	0.016276821
17	0x3d32459b	0.043523412
18	0x3db6267c	0.08894059
19	0x3d980d39	0.07424397
20	0xbd61c861	-0.055122737
21	0x3dcf74ef	0.10129725
22	0x3de435c1	0.11143065
23	0x3c1827fc	0.009286877
24	0xbd2ce31a	-0.04220877
25	0x3dbe68d2	0.09297337
26	0xbd5b399b	-0.053521734
27	0xbdb7a95e	-0.08967851
28	0xbd9be4df	-0.07612013
29	0xbd9886fd	-0.07447622
30	0xbd8cde16	-0.06878297
31	0x3c33323e	0.010937272
32	0xbcac9ec5	-0.021071801
33	0x3d8378d4	0.064195305
34	0x3d90f490	0.070778966
35	0xbd910a19	-0.07082004
36	0x3dcc0bd5	0.09963194
37	0xbd7ce743	-0.061743986
38	0xbd98c092	-0.07458605
39	0x3bac3cd8	0.0052562766
40	0xbc527d27	-0.012847221
41	0x3dfb5677	0.12272351
42	0x3dc7c589	0.09754474
43	0xbc54fd7e	-0.01299989
44	0x3c2ae55f	0.010430663
45	0x3dbe84e7	0.09302693
46	0xbd8ae857	-0.067825966
47	0x3de0df07	0.10980039
48	0x3caeca52	0.021336708
49	0x3dcd6fa8	0.10031062
50	0xbd8f7b9f	-0.07006001
51	0xbdb3bb96	-0.087760136
52	0xbc4fefe0	-0.012691468
53	0x3c56783b	0.013090189
54	0x3da28724	0.07935932
55	0x3dbdc02e	0.09265171
56	0x3bbd0e93	0.0057695596
57	0xbda69429	-0.08133728
58	0xbd6f4b11	-0.0584212
59	0xbdd51eb8	-0.1040625
60	0xbd0f9836	-0.03505727
61	0x3da5379c	0.08067247
62	0xbd8838ed	-0.06651483
63	0x3be59a7a	0.0070069404

sequential/dense_1/BiasAdd/ReadVariableOp/resource f4 [3]
0	0xbbd81ad7	-0.0065949964
1	0x3d8e6428	0.06952697
2	0xbd90e84a	-0.070755556

sequential/dense/MatMul f4 [64, 512]
0	0xbcde563b	-0.027140727
1	0xbd52a41d	-0.051426042
2	0x3d078fc8	0.033096105
3	0x3daa803c	0.0832524
4	0xbcd4bfe9	-0.025970416
5	0xbdbb6107	-0.09149366
6	0xbd563183	-0.05229331
7	0x3d9b9025	0.07595853
8	0xbddcd83b	-0.1078343
9	0xbcaf47e2	-0.021396581
10	0xbd65d140	-0.05610776
11	0xbd034dbb	-0.03205655
12	0x3d1927b0	0.037391365
13	0xbd3942cb	-0.045229714
14	0x3d56394c	0.052300736
15	0x3d1039ff	0.03521156
16	0x3ceeac24	0.029134817
17	0xbcd04b30	-0.025426477
18	0xbd3245df	-0.043523666
19	0xbd4817b5	-0.048850734
20	0x3da861a0	0.082217455
21	0x3dbab21d	0.09116004
22	0x3d1a310e	0.03764444
23	0xbd0e1cb3	-0.03469534
24	0x3cad95ea	0.021189649
25	0x3d6d439a	0.057925798
26	0xbd082b13	-0.033244204
27	0x3d2f2c98	0.042767137
28	0xbcb655ef	-0.022257773
29	0xbd78d87a	-0.060753323
30	0xbdca85aa	-0.09888776
31	0xbd9aa315	-0.07550637
32	0x3cf3731e	0.029717978
33	0x3dad9881	0.084763534
34	0x3c2addcb	0.010428856
35	0xbdbff4b9	-0.09372849
36	0x3d4165ff	0.04721641
37	0xbd13d3e3	-0.036090743
38	0x3d475c71	0.048672143
39	0xbb40185c	-0.0029311394
40	0x3d0a8a41	0.033823255
41	0xbb8a969f	-0.004229381
42	0x3cef6f70	0.029227942
43	0xbd528084	-0.051392093
44	0x3d66305e	0.05619847
45	0xbdd8be2f	-0.1058315
46	0xbd84f3b1	-0.06491793
47	0xbddc4b7c	-0.10756585
48	0xbde64fc7	-0.11245685
49	0x3c3d751e	0.011563567
50	0xbd387f1a	-0.04504309
51	0x3d5d4c00	0.054027557
52	0x3cacb3d3	0.02108184
53	0x3d8e4e25	0.06948499
54	0x3d670d39	0.056409094
55	0xbd8b03a0	-0.06787801
56	0xbde687cd	-0.11256371
57	0xbd94979f	-0.07255482
58	0xbc91fd66	-0.017821025
59	0x3ca988b4	0.020695068
60	0x3d6cd743	0.057822477
61	0x3c15fd56	0.009154638
62	0x3c889cee	0.016676392
63	0x3d14a857	0.036293354
64	0xbd76b16e	-0.060227804
65	0x3c972338	0.01844941
66	0xbd43c7b8	-0.04779789
67	0xbdd71908	-0.10502821
68	0xbc402fb5	-0.011730124
69	0x3d9bc7c8	0.076064646
70	0x3bb5262b	0.0055282316
71	0x3c24a2ef	0.010048612
72	0x3b8ded5c	0.004331274
73	0x3d9a5ded	0.07537446
74	0xbcf3aca8	-0.029745415
75	0x3c90ee7a	0.01769184
76	0xbd944ef4	-0.072416216
77	0x3d05f999	0.032708738
78	0x3d832abd	0.06404636
79	0xbca4eb8a	-0.020131845
80	0xbcc4b439	-0.024011718
81	0xbd6d4f6c	-0.05793707
82	0xbd815e72	-0.06316842
83	0xbcb86bd4	-0.022512354
84	0xbd2f4f2b	-0.04280011
85	0xbde4c79c	-0.11170885
86	0x3d4432f4	0.047900155
87	0x3d1a2b8f	0.037639197
88	0x3d76eb69	0.0602831
89	0x3d9588d5	0.07301489
90	0xbd55c140	-0.05218625
91	0x3cb1b883	0.021694427
92	0xbd8503e8	-0.06494886
93	0xbcbcfe79	-0.02307056
94	0x3c3c57d3	0.011495548
95	0x3c763f80	0.015029788
96	0x3d697d4f	0.05700427
97	0xbd8576dc	-0.06516811
98	0xbd51c54d	-0.05121355
99	0x3d45efc8	0.048324376
100	0x3ce5763a	0.028010476
101	0xbdaa5a86	-0.08318047
102	0xbdbb8d9f	-0.091578715
103	0xb90f2905	-0.00013652824
104	0xbd9eb1c2	-0.07748748
105	0xbd574097	-0.052551832
106	0x3d0dc9cf	0.034616288
107	0xbdea5aae	-0.11443077
108	0x3d89e312	0.06732763
109	0xbddd8cdf	-0.10817885
110	0x3d712117	0.058869448
111	0xbdbd5634	-0.092449576
112	0x3d14fc48	0.036373407
113	0x3d7745f6	0.060369454
114	0x3d91e46c	0.07123646
115	0xbd2f23e5	-0.04275884
116	0x3c6e565a	0.014546955
117	0xbd7932b1	-0.06083936
118	0xbd6618de	-0.05617606
119	0x3d95ee56	0.073208496
120	0x3d5f4ac4	0.05451466
121	0xbdacd0e1	-0.08438278
122	0x3bcaf8d1	0.006194212
123	0xbd5f2a1c	-0.054483518
124	0xbc8fa611	-0.017535241
125	0xbcf12ea9	-0.029441195
126	0xbbe66530	-0.0070311055
127	0x3c63d6d7	0.013906202
128	0xbddc3702	-0.107526794
129	0x3d9d2d7b	0.0767469
130	0x3dbfe7e0	0.093703985
131	0xbdc74af1	-0.09731091
132	0x3c82210b	0.015884897
133	0xbd14e223	-0.036348473
134	0xbd3efb22	-0.046626218
135	0xbd720e07	-0.05909541
136	0xbc1de64f	-0.009637429
137	0x3cca5ff7	0.024703963
138	0xb9dd1836	-0.00042170443
139	0xbd50f9e4	-0.051019564
140	0xbc90c281	-0.017670872
141	0xbdc1a3c8	-0.09455067
142	0xbc85c811	-0.01633075
143	0xbd931fc6	-0.07183795
144	0xbc1922df	-0.009346693
145	0xbdd5440f	-0.10413372
146	0xbd128e29	-0.035780106
147	0x3db5ac1e	0.088707194
148	0x3d8a3cec	0.06749901
149	0xbd39d2a2	-0.04536689
150	0xbd29642b	-0.041355293
151	0xbdcc923c	-0.099888295
152	0x3d94a537	0.07258075
153	0xbc5f7a5f	-0.013640015
154	0xbd65135b	-0.055926662
155	0xbc630660	-0.0138565
156	0x3d8605f2	0.06544103
157	0x3c70c628	0.014695682
158	0xbd10d6fc	-0.035361275
159	0xbd1c7df9	-0.038206074
160	0xbd9a7a80	-0.07542896
161	0xbaff557e	-0.0019480435
162	0xbd1c4647	-0.03815296
163	0xbd3e5a0e	-0.0464726
164	0xbc13e211	-0.009026066
165	0xbe0430cc	-0.1290924
166	0xbd11cfc8	-0.035598546
167	0xbde17548	-0.11008698
168	0xbde1027e	-0.109868035
169	0xbddb857a	-0.10718818
170	0xbda4cfea	-0.08047469
171	0xbc80c638	-0.015719518
172	0xbd1db9bd	-0.038507212
173	0xbd85ec28	-0.06539184
174	0xbda5e438	-0.0810017
175	0xbd2d374b	-0.04228906
176	0xbc02aad4	-0.007975299
177	0xbd2da9c6	-0.042398237
178	0x3cecd71b	0.028911164
179	0x3ccaf098	0.024772927
180	0xbc90937c	-0.017648451
181	0xbd88c034	-0.06677285
182	0xbd571584	-0.052510753
183	0xbd918d81	-0.07107068
184	0xbcac66b2	-0.021045063
185	0xbd9e1593	-0.07718959
186	0x3d79939c	0.060931787
187	0xbd73399a	-0.059381105
188	0xbca7b4be	-0.020471927
189	0x3d30384e	0.043022446
190	0xbda642f2	-0.081182376
191	0xbd9d44d9	-0.07679147
192	0x3d11139f	0.035419103
193	0xbc10fdd8	-0.008849584
194	0xbd6848b0	-0.056709945
195	0x3da7b481	0.08188725
196	0x3d7c40b6	0.06158515
197	0x3d6f42a4	0.058413163
198	0x3da4962b	0.08036455
199	0x3d0ededf	0.034880515
200	0x3d896103	0.06707957
201	0x3db1566e	0.08659063
202	0x3cb99ea2	0.02265865
203	0xbdb0cd61	-0.08632923
204	0xbde21d97	-0.110408
205	0x3c1237fe	0.008924482
206	0xbc5a87c4	-0.013338033
207	0xbce5884f	-0.028019099
208	0xbd20c2ad	-0.039248157
209	0xbd990e55	-0.07473437
210	0x3d9800fe	0.07422064
211	0xbdcd3903	-0.1002064
212	0x3c7dfae1	0.015501709
213	0x3d2837d9	0.041068885
214	0x3b455647	0.003011124
215	0xbd8613ed	-0.06546769
216	0x3cae590a	0.021282692
217	0xbd525d6d	-0.05135863
218	0xbdc98c85	-0.09841255
219	0x3d72ca95	0.05927523
220	0x3d0fb446	0.03508403
221	0xbdd142d4	-0.102178246
222	0x3d8fa2e0	0.07013488
223	0x3bb23c5e	0.0054393252
224	0xbd46e14e	-0.04855471
225	0x3ca46494	0.02006749
226	0xbd6a14e3	-0.057148825
227	0xbced91ba	-0.029000152
228	0xbc8d5554	-0.017252602
229	0xbd862628	-0.065502465
230	0xbd3b9e63	-0.045805346
231	0x3cdfb489	0.027307766
232	0x3d5743fe	0.052555077
233	0x3da03d86	0.07824235
234	0xbd872fbd	-0.06600902
235	0xbcbaaa6b	-0.02278634
236	0xbd861808	-0.06547552
237	0xbd5360c6	-0.051605962
238	0xbd7e4a38	-0.0620825
239	0x3db43798	0.08799666
240	0x3d7c2a9b	0.06156407
241	0xbcb3cff8	-0.021949753
242	0x3bde409c	0.0067826044
243	0xbc8676ee	-0.016414132
244	0xbd8b6df1	-0.06808079
245	0xbdc44749	-0.09583909
246	0x3ca1ddcb	0.01975908
247	0xbc678dc5	-0.014132922
248	0x3dc2dc77	0.095147066
249	0xbd8e52f4	-0.06949416
250	0xbdde2a45	-0.10847906
251	0x3c1cd39b	0.009571935
252	0xbdd5f7af	-0.104476325
253	0xbd63d2e8	-0.055621058
254	0xbca9290f	-0.020649461
255	0x3ba236b3	0.0049503683

sequential/dense_1/MatMul f4 [3, 64]
0	0xbe473736	-0.19454655
1	0x3c89d7f5	0.01682661
2	0xbdee33b5	-0.11630956
3	0x3d9d312a	0.07675393
4	0x3d0fc5d7	0.035100784
5	0x3d270a44	0.040781274
6	0x3e88c9fb	0.267166
7	0xbe181995	-0.14853509
8	0xbd87feec	-0.06640419
9	0xbdc9298b	-0.09822377
10	0x3e8f0465	0.2793304
11	0x3e227b00	0.15867233
12	0xbd15703a	-0.03648398
13	0x3ea5f076	0.3241002
14	0xbe6d9d0c	-0.2320444
15	0x3d12f7fe	0.035881035
16	0x3e2df5f5	0.16988356
17	0xbe0da158	-0.13831079
18	0x3e036ecc	0.12835234
19	0xbdf338d3	-0.11876073
20	0x3e7b802b	0.24560611
21	0xbdd5f7d8	-0.10447663
22	0xbe78b677	-0.24288355
23	0x3e9f796c	0.31147325
24	0xbe332e24	-0.1749807
25	0xbe24ac4e	-0.16081354
26	0x3dedd2db	0.11612483
27	0xbe15c47a	-0.14625731
28	0xbdc7deb3	-0.097592734
29	0x3c57a5b7	0.013162068
30	0xbe07abf8	-0.13249195
31	0x3e68a6f3	0.22719936
32	0xbd4189b2	-0.047250457
33	0xbe521a3d	-0.20517822
34	0xbe863789	-0.26214245
35	0xbd3a4302	-0.04547406
36	0x3e39e1af	0.18152498
37	0x3e4a10e2	0.19733003
38	0xbd9c84e1	-0.07642532
39	0x3d6f6640	0.058447123
40	0x3e8b1ad4	0.27168906
41	0x3e3aeedd	0.18255182
42	0xbe1879fd	-0.14890285
43	0xbd0972cc	-0.033556744
44	0x3e46f101	0.19427873
45	0x3dfeec82	0.12447454
46	0x3daebd5f	0.085322134
47	0x3df88709	0.12135131
48	0xbe142a23	-0.14469199
49	0xbd129747	-0.0357888
50	0xbd5633b0	-0.052295387
51	0xbe24c0e4	-0.16089207
52	0xbdcd8971	-0.100359805
53	0x3de94af0	0.11391246
54	0xbe809996	-0.25117177
55	0xbe047cf4	-0.12938291
56	0x3bbb4d5b	0.0057160086
57	0x3d8137a3	0.0630944
58	0x3c5f8fc5	0.013645117
59	0xbd1dcf69	-0.03852788
60	0x3dd03c31	0.101677306
61	0xbe36fc3f	-0.17869662
62	0xbe9df9fc	-0.30854785
63	0x3ddb3b77	0.107047014
64	0xbd27c951	-0.040963475
65	0xbe751357	-0.23933159
66	0x3e02c93a	0.12772074
67	0x3d92ecf6	0.07174103
68	0xbe03a426	-0.12855586
69	0x3e6d3ee0	0.23168516
70	0x3c4a610d	0.01235224
71	0x3e0e2d38	0.13884437
72	0x3e06239b	0.1309952
73	0x3ea26483	0.3171731
74	0xbe24089b	-0.16018908
75	0x3e4e1ce3	0.20128207
76	0x3eaf976b	0.3429521
77	0x3e3244a2	0.17408994
78	0xbcfdae47	-0.030966891
79	0xbdf8959d	-0.121379115
80	0x3d0caea5	0.03434624
81	0xbdd31e41	-0.10308505
82	0x3e956667	0.2917969
83	0xbde843da	-0.11341067
84	0xbdcebb26	-0.100942895
85	0xbd2ff10b	-0.042954486
86	0xbd76eff7	-0.060287442
87	0xbe9aa468	-0.30203557
88	0x3d08f145	0.033433218
89	0x3e480c79	0.19536008
90	0xbe3c25fc	-0.18373865
91	0xbeaeecb0	-0.34164953
92	0xbeb02f34	-0.34411013
93	0x3d10c348	0.035342485
94	0xbe631ab7	-0.2217816
95	0x3cf3843d	0.029726142
96	0xbda2fa11	-0.07957853
97	0x3e4b0bd5	0.19828732
98	0x3e542aaf	0.20719407
99	0xbc30a6aa	-0.010781923
100	0x3e8029c3	0.25031862
101	0xbe780852	-0.24221924
102	0xbea0d93d	-0.3141574
103	0xbe2bf9f3	-0.16794567
104	0xbe4aaa46	-0.19791517
105	0x3eb4541e	0.35220426
106	0x3d9850b9	0.074372716
107	0xbe07099b	-0.13187258
108	0x3d734f85	0.059402008
109	0x3e1630a3	0.14666991
110	0xbe32595b	-0.17416899
111	0x3e9de716	0.30840367
112	0x3e209355	0.15681203
113	0x3ea8a207	0.32936117
114	0xbdc4116c	-0.095736355
115	0xbe7cadc1	-0.24675657
116	0xbe504473	-0.20338611
117	0xbd6744ea	-0.056462206
118	0x3e6a5a60	0.22886038
119	0x3ebac83a	0.36480886
120	0xbd9696e5	-0.073529996
121	0x3d1dc196	0.038514696
122	0xbea3f789	-0.32024792
123	0xbdf4fd5e	-0.119623885
124	0xbe80c2f0	-0.25148726
125	0x3dfb3ebd	0.12267826
126	0xbe8d8290	-0.27638674
127	0xbd2618db	-0.040551048
128	0x3e6da8e6	0.23208961
129	0xbd32ca8e	-0.043650202
130	0x3e3749aa	0.17899194
131	0x3e618e56	0.22026953
132	0x3ce95a2a	0.028485376
133	0x3e981400	0.2970276
134	0x3bf364b3	0.0074277758
135	0x3deb678b	0.11494359
136	0x3e6ce06d	0.23132487
137	0x3e463c87	0.19359027
138	0xbc830b37	-0.015996559
139	0xbe50eaf7	-0.20402132
140	0xbdb05f16	-0.08611886
141	0xbe2ba129	-0.16760696
142	0xbe8288cd	-0.25494996
143	0xbe9fa7fe	-0.31182855
144	0xbdea6c84	-0.11446479
145	0xbe8459e6	-0.25849837
146	0xbdc138ea	-0.094346836
147	0xbe6da845	-0.23208721
148	0x3e10aa60	0.14127493
149	0xbeab8bff	-0.33505246
150	0xbe770cf3	-0.24126033
151	0xbe6dee26	-0.23235378
152	0x3e8826b9	0.26592043
153	0xbe93cd50	-0.28867579
154	0x3cc8e5bc	0.024523608
155	0xbe57baf8	-0.21067417
156	0xbdca3737	-0.09873813
157	0x3de87c68	0.113518536
158	0x3de474de	0.11155103
159	0xbe6a97ea	-0.22909513
160	0xbd2b34e2	-0.04179848
161	0x3e1e8ec7	0.15484153
162	0xbe3bf6f0	-0.18355918
163	0x3e90f5fa	0.28312665
164	0xbb06916b	-0.0020533453
165	0x3e22478f	0.1584761
166	0x3e50efc4	0.20403963
167	0xbe0bac96	-0.13640055
168	0x3cca96c6	0.024730098
169	0x3ccedb93	0.025251186
170	0xbde3a4e8	-0.11115438
171	0xbe800495	-0.25003496
172	0xbe24f53e	-0.16109177
173	0xbe8e995a	-0.27851373
174	0x3d48670d	0.048926402
175	0xbc4bc0a3	-0.012436065
176	0x3e4643d5	0.19361813
177	0xbe85259c	-0.26005256
178	0x3e6882ce	0.22706148
179	0x3d29b676	0.041433774
180	0x3e90c5b1	0.28275827
181	0xbe268272	-0.16260698
182	0xbe97bf23	-0.29638013
183	0xbe842f1d	-0.25817195
184	0xbe3ee6f7	-0.18642794
185	0x3e2da2be	0.16956612
186	0xbd873f34	-0.06603852
187	0xbd104031	-0.035217468
188	0xbdaab227	-0.08334761
189	0xbd68020a	-0.05664257
190	0x3e2015bc	0.15633291
191	0xbd8d9847	-0.0691381

sequential/conv2d/Conv2D f4 [16, 3, 3, 3]
0	0x3df72ab3	0.12068691
1	0x3d7409c6	0.059579633
2	0xbd9bcc2e	-0.076073036
3	0x3c95d566	0.018290233
4	0x3e087a1f	0.13327836
5	0x3d5d2cb6	0.053997718
6	0xbcb04d00	-0.021521091
7	0x3de8327f	0.11337756
8	0x3d854f48	0.06509262
9	0xbdc6f393	-0.09714427
10	0xbbdc21d2	-0.006717899
11	0x3d86cb66	0.06581764
12	0xbe05a178	-0.13049877
13	0x3df3a3a8	0.11896449
14	0xbdf384e1	-0.11890579
15	0x3e37111d	0.17877622
16	0xbdcac036	-0.098999426
17	0x3e409308	0.18806088
18	0xbd9c4a2d	-0.076313354
19	0x3e343a03	0.17600255
20	0x3e404a9d	0.18778463
21	0x3e29ca6a	0.16581121
22	0x3d8e2571	0.06940735
23	0x3db725e1	0.08942772
24	0x3daa3372	0.08310594
25	0xbd71dddb	-0.05904947
26	0x3d7b844b	0.06140546
27	0xbe372d42	-0.17888358
28	0xbe1c8804	-0.15286261
29	0xbe3252e2	-0.1741443
30	0xbb37401f	-0.0027961803
31	0xbe33179e	-0.17489478
32	0xbe219998	-0.15781248
33	0x3e338281	0.17530252
34	0xbe3c680c	-0.18399066
35	0x3e25f095	0.16205056
36	0x3dc61c92	0.09673418
37	0x3e02f954	0.12790424
38	0x3e2c168b	0.16805474
39	0x3d33c7b0	0.04389161
40	0xbdc05c3d	-0.09392593
41	0xbe421a9e	-0.18955466
42	0x3e391dc9	0.18077768
43	0xbe488470	-0.19581771
44	0xbd4b63e3	-0.049655806
45	0xbe20b5eb	-0.15694396
46	0x3cecde1b	0.028914502
47	0x3e415364	0.18879467
48	0x3e468b5d	0.193891
49	0x3d231dc6	0.039823316
50	0xbca08edd	-0.019599373
51	0x3e1ffbbd	0.15623374
52	0x3d856bea	0.065147236
53	0xbe321c9e	-0.17393729
54	0xbda73cc1	-0.08165885
55	0xbe076c9b	-0.13225023
56	0x3e11ac08	0.14225781
57	0x3e36c4ba	0.17848483
58	0x3db86c7e	0.09005068
59	0xbd8a1c70	-0.06743705
60	0xbe1e0de8	-0.15434992
61	0xbb19e5bf	-0.0023482887
62	0xbe00ceb5	-0.12578852
63	0xbdf7ae0d	-0.120937444
64	0xbdbb5d88	-0.09148699
65	0xbcae1742	-0.021251325
66	0x3e1c3ad6	0.15256819
67	0xbd8fbfff	-0.07019042
68	0x3dc8f56f	0.09812438
69	0x3db43897	0.08799856
70	0x3e2ed74a	0.17074314
71	0x3e2282ec	0.15870255
72	0xbb7bd616	-0.0038427166
73	0xbe18c49d	-0.14918752
74	0x3c62ce24	0.013843093
75	0x3d3b9a0f	0.04580122
76	0x3e2db874	0.16964895
77	0x3e2b7c8b	0.16746728
78	0x3d6ae03b	0.05734275
79	0x3e477e0a	0.19481674
80	0x3e1c6bfa	0.15275565
81	0x3e379a42	0.17929938
82	0xbcf7de9f	-0.030257521
83	0x3e6f9f6e	0.23400661
84	0x3d8e550d	0.06949816
85	0x3d800347	0.06250625
86	0x3e7a17a0	0.24423075
87	0xbcc6472f	-0.024203865
88	0xbd608bcf	-0.054820832
89	0x3d054d6b	0.032544535
90	0x3e046bf5	0.12931807
91	0xbd79dac6	-0.060999654
92	0x3e53d80a	0.20687881
93	0x3e2ab855	0.1667188
94	0x3e367cea	0.17821088
95	0xbd6a177c	-0.057151303
96	0x3e0f92e1	0.14020874
97	0x3de09b86	0.10967164
98	0xbdc4896f	-0.09596526
99	0x3e2a8476	0.16652092
100	0x3e441cb1	0.1915157
101	0x3e4e8f0a	0.20171753
102	0xbbb2704e	-0.0054455167
103	0x3d1e0100	0.038575172
104	0x3e40a641	0.18813421
105	0x3ddbd8e1	0.10734726
106	0xbc244081	-0.010025145
107	0x3c998eaf	0.018744795
108	0xbd36b9a8	-0.04461065
109	0x3e14b145	0.14520748
110	0xbd84faeb	-0.06493171
111	0x3e0cdf05	0.1375695
112	0xbdfc4944	-0.12318662
113	0xbd8653dd	-0.065589644
114	0xbd9285e7	-0.07154446
115	0x3e517db3	0.20458107
116	0x3cb74d66	0.022375774
117	0x3c8891f4	0.016671158
118	0x3df14b57	0.11781948
119	0x3dda41e8	0.10657102
120	0xbe04abe1	-0.12956192
121	0x3c83f468	0.016107753
122	0xbdead216	-0.11465852
123	0xbc857d98	-0.01629524
124	0xbe29739d	-0.16548009
125	0xbdd4d13b	-0.1039147
126	0xbe098929	-0.13431229
127	0xbd35d434	-0.044391826
128	0x3e0065dd	0.12538858
129	0x3c153fac	0.009109419
130	0x3de15e92	0.11004366
131	0x3ddbd599	0.107341
132	0xbd5938c6	-0.05303266
133	0xbdfaa804	-0.12239078
134	0xbe2a390a	-0.16623321
135	0x3e2ad525	0.1668287
136	0x3cc22279	0.023698078
137	0xbdbc785e	-0.09202646
138	0x3cc7fe30	0.024413198
139	0xbe2c50d7	-0.16827713
140	0xbdc5ddf8	-0.09661478
141	0x3e013847	0.12619124
142	0x3e38b74d	0.18038674
143	0xbcfb55ad	-0.030680502
144	0x3e4370eb	0.19086044
145	0x3c90b172	0.017662738
146	0x3a3061a9	0.00067284197
147	0xbe29807c	-0.16552919
148	0x3baeefa1	0.0053386246
149	0x3df09b2c	0.11748347
150	0x3b9efc4e	0.0048518544
151	0xbdea6842	-0.11445667
152	0xbe16ab45	-0.14713772
153	0xbc22665d	-0.009912101
154	0xbdb35fd6	-0.08758514
155	0x3d3b03fa	0.04565809
156	0x3d470e24	0.04859747
157	0xbd3d8104	-0.046265617
158	0x3d3888d3	0.04505236
159	0xbe156f30	-0.14593196
160	0xbcbddeb1	-0.023177477
161	0xbe51dc11	-0.20494105
162	0xbce70c08	-0.02820398
163	0xbd4ebbde	-0.050472133
164	0x3de6194b	0.11235293
165	0xbd97a370	-0.0740422
166	0xbe3dee62	-0.18547967
167	0x3e1ca9c6	0.15299138
168	0x3d62793d	0.055291403
169	0x3e03b7c2	0.12863067
170	0x3ddee4af	0.10883462
171	0xbd81b8bf	-0.06334066
172	0x3e28646d	0.1644456
173	0x3dea2366	0.11432533
174	0xbe309f89	-0.17248358
175	0x3e1f2358	0.15540826
176	0xbb50b4bd	-0.003184601
177	0xbe615546	-0.22005185
178	0xbe3bf43f	-0.18354891
179	0xbdf6c279	-0.120488115
180	0x3d7aa37d	0.06119107
181	0x3b1eb0f4	0.002421436
182	0x3e6bc5ae	0.23024628
183	0xbd17bd09	-0.037045512
184	0x3dc4b20f	0.096042745
185	0x3d73fb0e	0.059565596
186	0xbca93e95	-0.020659724
187	0x3e188194	0.1489318
188	0xbd6f089b	-0.058357816
189	0xbdf40c41	-0.119164
190	0xbd03ab99	-0.03214607
191	0xbe50ff18	-0.2040981
192	0x3d25e689	0.04050306
193	0xbc8cc983	-0.017185932
194	0x3d79006c	0.060791418
195	0xbcb43b08	-0.022000805
196	0x3dbcfbb0	0.09227693
197	0xbd8a6a26	-0.067585275
198	0x3dd1addc	0.10238239
199	0xbdacde22	-0.08440806
200	0xbe221363	-0.15827708
201	0x3e150c00	0.14555359
202	0xbc91cdc4	-0.017798312
203	0xbe51953f	-0.20467089
204	0x3e109004	0.14117438
205	0xbe16b940	-0.14719105
206	0xbe159cf7	-0.14610659
207	0x3db41754	0.08793512
208	0xbdeec85a	-0.11659308
209	0x3e309520	0.17244387
210	0x3d925488	0.07145029
211	0xbcbdfccc	-0.023191832
212	0x3dca7cf1	0.09887112
213	0xbdb7700c	-0.08956918
214	0x3cafdbd8	0.021467134
215	0x3db29552	0.08719887
216	0xbe3f9cf8	-0.18712223
217	0x3cc04f41	0.023475291
218	0x3c3f213c	0.011665639
219	0xbcdad7da	-0.026714254
220	0xbd811de2	-0.06304528
221	0xbd76937b	-0.060199242
222	0x3d960c75	0.07326595
223	0xbe048577	-0.12941538
224	0xbd90cc41	-0.07070208
225	0xbe137445	-0.14399822
226	0x3e2cd9ab	0.16879909
227	0xbde0ef7d	-0.10983179
228	0x3dd0cc00	0.1019516
229	0x3e27be55	0.163812
230	0xbdbe93ac	-0.0930551
231	0xbe275e13	-0.1634448
232	0xbd554017	-0.052063074
233	0x3d3e5818	0.04647073
234	0x3cf75898	0.030193612
235	0xbc2bd5ac	-0.010487955
236	0x3d95a28f	0.07306396
237	0x3d0bf48a	0.034168757
238	0x3e01ca4c	0.12674826
239	0x3d2f34ce	0.042774968
240	0x3d246750	0.04013759
241	0x3e2027be	0.1564016
242	0x3e18a66a	0.14907232
243	0xbdf0b6e4	-0.117536336
244	0xbdcc45ce	-0.09974252
245	0xbe254c6f	-0.16142438
246	0xbd65a90b	-0.056069415
247	0xbe24a1b6	-0.16077313
248	0x3e0d3c92	0.13792637
249	0x3e069bf4	0.13145429
250	0xbb078423	-0.0020678125
251	0x3e30d243	0.17267708
252	0xbe347eef	-0.17626546
253	0x3d810ad2	0.06300892
254	0xbdc2312f	-0.09482037
255	0xbd195088	-0.037430316

sequential/conv2d_1/Conv2D f4 [16, 3, 3, 16]
0	0xbd9a2e6c	-0.075283855
1	0x3a06fbe6	0.000514923
2	0xbd15a585	-0.036534805
3	0xbdc84f64	-0.097807676
4	0xbd0bd57e	-0.03413915
5	0xbd6f8d54	-0.05848439
6	0x3c80dbff	0.015729902
7	0x3e58d4e8	0.21174967
8	0x3cfb2809	0.030658739
9	0x3da47889	0.08030803
10	0xbe0abb1c	-0.13547939
11	0x3e13bcc9	0.14427485
12	0x3deda717	0.116041355
13	0x3d31db87	0.04342225
14	0x3e093263	0.13398127
15	0xbd1d79a6	-0.03844609
16	0x3d964153	0.07336678
17	0x3e471ae1	0.19443847
18	0xbd0ce83c	-0.034401163
19	0xbdf0b096	-0.11752431
20	0x3d0325fa	0.03201864
21	0x3dec1c84	0.115288764
22	0x3d80cb50	0.06288779
23	0x3d2c0436	0.041996203
24	0x3d87dab4	0.06633511
25	0x3e13773c	0.14400953
26	0xbe001642	-0.1250849
27	0x3df5abd1	0.11995662
28	0x3df3c1b8	0.11902183
29	0x3dbb4898	0.091447055
30	0x3e5a8a81	0.21341898
31	0x3d14e2f8	0.036349267
32	0xbdcfc228	-0.10144454
33	0x3e4de39c	0.20106357
34	0x3de2a177	0.11065953
35	0xbda89f9c	-0.08233568
36	0x3cd5379d	0.026027495
37	0xbd01996c	-0.031640455
38	0xbd9eb4f0	-0.07749355
39	0x3dd596d2	0.10429157
40	0xbd9547b1	-0.07289065
41	0x3e235b10	0.15952706
42	0x3dfc8508	0.12330061
43	0xbdeb21b9	-0.114810415
44	0x3e7ad3a8	0.24494803
45	0x3dda803c	0.1066899
46	0x3d602753	0.054725002
47	0x3d95df3b	0.073179685
48	0xbd6f3514	-0.05840023
49	0x3e80525d	0.25062838
50	0x3dd3cbfd	0.10341642
51	0x3d2bee60	0.04197538
52	0x3dc9fe6b	0.098629795
53	0x3d2f9bd0	0.042873204
54	0xbbe575ae	-0.007002554
55	0x3e5cc71c	0.21560329
56	0x3d9acbb6	0.07558386
57	0x3d9b2095	0.07574574
58	0x3e0d902a	0.13824525
59	0x3e26cdca	0.1628944
60	0x3d83e827	0.06440764
61	0xbcd819a5	-0.026379416
62	0x3b134996	0.002247428
63	0xbdee4487	-0.11634164
64	0xbdda7902	-0.10667612
65	0x3e8c4ded	0.27403203
66	0x3c7c9826	0.015417134
67	0x3ddb3853	0.10704102
68	0x3d2c4471	0.04205746
69	0x3d9cc0b3	0.07653942
70	0x3da2a562	0.079417005
71	0x3e49e2d5	0.19715436
72	0xbd8ef65d	-0.06980584
73	0x3c2ba111	0.010475413
74	0x3dd2c8c6	0.10292201
75	0x3e0de9b5	0.13858683
76	0x3e861989	0.26191357
77	0x3d8f0a92	0.06984438
78	0xbc8ea64b	-0.017413279
79	0x3d3cd103	0.046097767
80	0xbe106142	-0.14099601
81	0x3d2f4bdc	0.042796955
82	0x3b3a2b9d	0.0028407343
83	0xbdfd70b8	-0.12375015
84	0x3d1e1eac	0.03860347
85	0xbd016c19	-0.03159723
86	0x3dc4c9e3	0.09608819
87	0x3e624356	0.22095999
88	0xbe0928d0	-0.13394475
89	0x3e54e0d4	0.2078889
90	0xbe1b63ae	-0.15174744
91	0xbd057d35	-0.03259011
92	0x3e803947	0.250437
93	0x3d148893	0.03626306
94	0x3c95e523	0.018297737
95	0x3da704d8	0.08155221
96	0x3d922aee	0.071370944
97	0xbbc20f19	-0.00592221
98	0x3d86d363	0.065832876
99	0x3e0266f8	0.12734592
100	0xbd5b167a	-0.053488232
101	0xbca150fe	-0.01969194
102	0xbd3ad146	-0.045609735
103	0xbd696668	-0.056982428
104	0xbdc3304d	-0.09530697
105	0xbd1eb008	-0.038742095
106	0x3d9b46a0	0.0758183
107	0xbd98b0d9	-0.07455606
108	0x3d73b608	0.05949977
109	0x3e2ca9ea	0.16861692
110	0xbc232f08	-0.009959944
111	0x3dc24889	0.09486491
112	0xbb99d176	-0.004694159
113	0x3e14440f	0.14479087
114	0x3d3a6e61	0.04551542
115	0x3d92627c	0.07147691
116	0x3dda5b3a	0.10661931
117	0x3e1341a0	0.14380503
118	0xbc9a9051	-0.018867644
119	0x3e63c26f	0.2224214
120	0x3da66046	0.081238315
121	0x3dbb2787	0.091383986
122	0x3cd4320c	0.02590277
123	0x3d826453	0.063667916
124	0x3c721010	0.014774337
125	0x3de9e92e	0.114214286
126	0x3d86a060	0.06573558
127	0xbd8bc633	-0.06824913
128	0x3c701171	0.014652596
129	0x3e56e04d	0.20984001
130	0x3dd1080d	0.10206614
131	0xbdc72204	-0.09723285
132	0x3e46c3d1	0.19410636
133	0x3e136b39	0.14396371
134	0xbd970cb9	-0.073754735
135	0x3dfb82da	0.12280817
136	0x3d67be31	0.056577865
137	0x3a0fb2f2	0.0005481682
138	0x3c96a49a	0.018389035
139	0xbd802f9a	-0.06259079
140	0x3df33b54	0.1187655
141	0x3d8e56ed	0.069501735
142	0x3c287ab2	0.010283159
143	0xbc72eadb	-0.014826502
144	0x3d4e65af	0.05038994
145	0x3e06dc52	0.13169983
146	0xbd820517	-0.06348627
147	0x3b46c619	0.0030330478
148	0x3d0f995c	0.035058364
149	0x3d8a2b23	0.06746509
150	0x3db16262	0.08661343
151	0x3e233f46	0.15942106
152	0x3d1a9f9e	0.03774988
153	0x3df5d369	0.12003214
154	0xbd493c3c	-0.04912971
155	0x3df83469	0.121193714
156	0x3d7056dd	0.05867659
157	0x3da22f76	0.07919209
158	0x3e00adc3	0.12566285
159	0xbd0ffb09	-0.035151515
160	0x3dbbd955	0.09172312
161	0x3de653b5	0.112464346
162	0x3d102ddc	0.035199985
163	0xbde2fa8b	-0.110829435
164	0xba0f5e0c	-0.0005469031
165	0x3e2d0ba4	0.16898972
166	0xbd74dad5	-0.059779007
167	0x3ce350e9	0.027748542
168	0xbd27f929	-0.041009102
169	0x3dcfd57f	0.10148143
170	0xbe0b95ac	-0.13631314
171	0x3cd196f7	0.025584681
172	0x3e96ec3c	0.29477108
173	0x3e192f1f	0.14959382
174	0x3db72ad4	0.08943716
175	0xbe058108	-0.13037503
176	0x3d6cb081	0.057785515
177	0x3dd98b0a	0.10622223
178	0xbcb6de35	-0.022322753
179	0xbac9e05d	-0.0015401948
180	0x3dc36fd6	0.095428154
181	0xbd1480ea	-0.036255755
182	0x3da97dc2	0.082759395
183	0x3dd9fcd0	0.10643923
184	0xbd96705f	-0.07345652
185	0xbddae372	-0.10687913
186	0xbde0d709	-0.10978515
187	0x3e0fbc25	0.14036615
188	0x3e337790	0.17526078
189	0x3e7c2c24	0.24626213
190	0xbdc98111	-0.098390706
191	0xbe0e283a	-0.13882533
192	0x3db11f9f	0.08648609
193	0x3de2504a	0.1105047
194	0x3df9fe00	0.1220665
195	0xbda216f2	-0.07914533
196	0x3d13288d	0.035927344
197	0x3e56ce3f	0.20977114
198	0xbd7e95ef	-0.062154707
199	0x3e541d95	0.2071441
200	0xbd04fcb5	-0.032467563
201	0xbda09241	-0.07840396
202	0x3de24473	0.11048212
203	0xba93c5bf	-0.0011274143
204	0x3df484e9	0.11939413
205	0x3d9ef5b2	0.077617064
206	0x3d1d9ddc	0.038480625
207	0xbc075d03	-0.008261922
208	0x3d94ee70	0.07272041
209	0xbc913e77	-0.01772998
210	0xbd9a5ff6	-0.07537834
211	0x3e0d0078	0.1376971
212	0x3e2dcdac	0.16972989
213	0xbb53aba2	-0.0032298346
214	0x3d5b6725	0.053565163
215	0x3c0b8060	0.008514494
216	0xbe0864d7	-0.13319717
217	0x3c59d853	0.013296205
218	0x3d8e189c	0.069382876
219	0x3db88ee1	0.09011627
220	0x3e8974be	0.2684688
221	0x3c920a85	0.017827282
222	0x3ccc90b2	0.02497134
223	0xbdb9574b	-0.09049853
224	0x3bd5f165	0.0065290206
225	0xbd1269e6	-0.035745524
226	0xbc7a4c69	-0.015277007
227	0xbdf7f985	-0.12108139
228	0x3ced60f2	0.028976891
229	0x3ca63219	0.02028756
230	0x3ba52e6d	0.005040935
231	0x3e05bbe9	0.13059963
232	0xbe190656	-0.14943823
233	0xbd957090	-0.0729686
234	0x3dad1323	0.08450916
235	0x3e10229d	0.14075704
236	0x3e979f10	0.29613543
237	0xb96b6d61	-0.00022452093
238	0x3e19beab	0.1501414
239	0x3bc42193	0.0059854477
240	0xbd85bad5	-0.06529776
241	0x3d2df60b	0.042470973
242	0xbd2977fa	-0.041374184
243	0x3e04c7fe	0.12966916
244	0x3e238e6c	0.15972298
245	0x3d8be821	0.068313845
246	0x3e120ee4	0.14263493
247	0x3c8881d9	0.016663479
248	0x3d0b677b	0.034034234
249	0xbd38b5d0	-0.045095265
250	0x3e0e7aa7	0.13913976
251	0x3d218480	0.039433002
252	0x3bb93488	0.005652014
253	0x3e3e8a38	0.18607414
254	0x3d4a062f	0.049322303
255	0xbdbfe596	-0.09369962

sequential/conv2d_2/Conv2D f4 [32, 3, 3, 16]
0	0x3dac1c7a	0.08403869
1	0x3e0c9e56	0.13732275
2	0xbcd794cc	-0.026316069
3	0x3de5498b	0.11195668
4	0x3d09eff4	0.033676103
5	0xbd7376d5	-0.0594395
6	0x3da434f7	0.08017915
7	0x3dddf820	0.10838342
8	0xbd96a520	-0.07355714
9	0xbc8a90d1	-0.016914757
10	0x3e030179	0.1279353
11	0x3c7e2d58	0.0155137405
12	0xbc90b702	-0.01766539
13	0x3d6764b1	0.05649251
14	0x3cb835e0	0.022486627
15	0xbdd641f5	-0.10461799
16	0x3df1d050	0.118073106
17	0x3daf6cd1	0.08565677
18	0x3be961df	0.007122263
19	0x3e02132a	0.12702623
20	0x3d58e858	0.052955955
21	0x3e038d94	0.12846977
22	0xbdde1a4f	-0.10844862
23	0x3cccbbf2	0.024991963
24	0xbdef7abe	-0.11693333
25	0xbdf5cd6c	-0.12002072
26	0x3d3467d3	0.044044327
27	0xbdc70803	-0.09718325
28	0xbd84b87d	-0.06480501
29	0x3cbaa437	0.022783382
30	0xbcc28922	-0.02374703
31	0xbd9e344f	-0.07724821
32	0x3d5c88f6	0.053841554
33	0xbc0e97de	-0.0087032
34	0x3df10784	0.117690116
35	0x3d42adf8	0.04752919
36	0x3d417ef5	0.047240216
37	0xbcf91ebb	-0.030410161
38	0x3d861e55	0.06548754
39	0x3c872bf8	0.016500458
40	0xbdb5bedc	-0.08874294
41	0x3d938f41	0.07205058
42	0xbd91cdc6	-0.07119326
43	0xbc9c0697	-0.019046111
44	0x3de8bc58	0.11364049
45	0x3e2882c3	0.16456132
46	0x3dca2f21	0.098722704
47	0xbdecb800	-0.11558533
48	0x3bcdac8a	0.006276672
49	0x3de94eda	0.11391993
50	0x3e2b3298	0.16718519
51	0x3cd7e377	0.02635358
52	0x3d01df41	0.031707052
53	0x3de2d68d	0.110760786
54	0x3d34a596	0.044103228
55	0xbbdca4c9	-0.006733511
56	0xbdf3e41d	-0.119087435
57	0xbd84e66d	-0.06489263
58	0x3d24d45c	0.040241584
59	0xbde11a42	-0.109913364
60	0xbd2a3b6d	-0.04156058
61	0x3d01ca23	0.031686913
62	0xbc989cc7	-0.018629445
63	0x3db5c937	0.08876269
64	0x3d8c6a85	0.068562545
65	0xbd91ab51	-0.07112754
66	0x3c53e65e	0.012933342
67	0xbd1739fc	-0.036920533
68	0x3df68210	0.12036526
69	0x3d7ef55a	0.062245704
70	0xbd9d0ad2	-0.076680794
71	0x3db41abf	0.08794164
72	0x3ce23ea8	0.027617767
73	0xbd5b64dc	-0.053562984
74	0x3d8e4ec3	0.06948616
75	0xbdac3f40	-0.084105015
76	0x3d92befa	0.07165332
77	0xbd62b8f0	-0.05535215
78	0xbb65e484	-0.0035078833
79	0x3d769268	0.060198218
80	0x3e1d3191	0.1535094
81	0xbd0f4211	-0.034975115
82	0x3e2bf30b	0.16791932
83	0x3e15b762	0.14620736
84	0x3df1da90	0.118092656
85	0xbca719aa	-0.02039798
86	0x3cb55414	0.022134818
87	0x3d8a55ca	0.06754644
88	0x3da403a4	0.08008507
89	0xbd866759	-0.06562681
90	0xbdbcfb01	-0.09227563
91	0x3dbe9731	0.09306181
92	0x3dc0e6be	0.094190106
93	0x3d845948	0.064623415
94	0xbdc11e3a	-0.094295934
95	0x3d9dfc06	0.07714085
96	0x3df21578	0.11820501
97	0x3d73cfac	0.059524223
98	0xbbac3ebb	-0.0052565015
99	0x3d4b2713	0.04959781
100	0x3e137029	0.14398254
101	0x3c40a453	0.011757928
102	0xbb35e7e4	-0.0027756626
103	0xbdbb9d20	-0.091608286
104	0xbd5c58c1	-0.05379558
105	0x3c0538e0	0.008131236
106	0x3d4cafd0	0.049972355
107	0x3d93205e	0.07183908
108	0xbd70247f	-0.058628555
109	0x3d85d186	0.06534104
110	0xbd162e65	-0.03666534
111	0xbd1d8170	-0.03845352
112	0xbcf5edec	-0.030020677
113	0x3e041188	0.12897313
114	0x3e2f7999	0.1713623
115	0x3db560da	0.088563636
116	0x3d3597d2	0.04433424
117	0x3e043d51	0.12914015
118	0xbd0c8378	-0.034305066
119	0x3dc8960e	0.09794246
120	0xbd965112	-0.07339682
121	0xbdeb5fa3	-0.11492851
122	0x3d76c6fc	0.06024836
123	0x3d13fb81	0.036128525
124	0x3cc67b6e	0.024228778
125	0x3ddeed21	0.108850725
126	0xbdb6e048	-0.08929497
127	0x3d33a4be	0.043858282
128	0x3e340cd9	0.17583026
129	0xbd5ce7e4	-0.053932086
130	0x3e0b38e4	0.13595921
131	0x3df993d2	0.121863976
132	0xbd8847f2	-0.066543475
133	0x3def3b23	0.11681201
134	0xbd52c122	-0.051453717
135	0xbd146c40	-0.036236048
136	0x3d3fab2b	0.046794098
137	0x3bc008ef	0.00586044
138	0xbda83226	-0.0821269
139	0xbde3922f	-0.11111867
140	0x3d73ddf3	0.05953784
141	0x3e13dd1f	0.1443982
142	0xbca0f56d	-0.019648278
143	0x3cf622ba	0.030045856
144	0x3d1e65df	0.03867137
145	0xbe140744	-0.14455897
146	0x3cc85410	0.024454147
147	0x3cc21454	0.023691334
148	0xbde4cb98	-0.11171645
149	0xbdfaca58	-0.12245625
150	0x3de89c0b	0.11357888
151	0x3d0650d1	0.032791916
152	0x3d87737e	0.06613825
153	0xbd757077	-0.059921708
154	0xbdd73b3a	-0.105093434
155	0xbd1ed543	-0.0387776
156	0xbd050e4b	-0.032484334
157	0x3d33c0c3	0.043885004
158	0x3bf30cbd	0.00741729
159	0x3d5b17cd	0.053489495
160	0xbdf44956	-0.1192805
161	0xbe12eaf8	-0.14347446
162	0xbd8ee377	-0.06976979
163	0x3dd702b5	0.10498563
164	0xbb9a4765	-0.004708218
165	0x3d4ec696	0.050482355
166	0xbdb755be	-0.08951901
167	0xbbb6ea7b	-0.0055821515
168	0xbca12bb6	-0.019674163
169	0xbc4b8d00	-0.012423754
170	0x3da698cd	0.08134613
171	0x3d5a5cd7	0.053311195
172	0x3d0b547a	0.03401611
173	0x3e221bd3	0.15830927
174	0x3d91dc5b	0.071221076
175	0x3d0b3159	0.03398261
176	0xbdc59786	-0.096480414
177	0x3d3bf753	0.045890164
178	0x3d8dfd5c	0.0693309
179	0x3d8ebecf	0.069699876
180	0x3e17da7c	0.14829439
181	0xbd6cc22a	-0.057802357
182	0x3d51a5aa	0.05118338
183	0x3be5a007	0.007007602
184	0x3d981979	0.074267335
185	0x3d56d5cd	0.05244999
186	0xbd9030ea	-0.070405796
187	0x392c3bfd	0.00016425546
188	0x3be6f637	0.007048394
189	0xb8c30189	-9.2986105e-05
190	0x3b2a5b25	0.0025994268
191	0x3d124560	0.035710692
192	0xbdaa247a	-0.083077386
193	0xbe09922f	-0.13434671
194	0x3d0838e3	0.033257376
195	0x3d8b0032	0.06787147
196	0x3dab04d6	0.08350532
197	0xbddfb37d	-0.109229065
198	0xbd62d70e	-0.055380873
199	0x3d24957c	0.040181622
200	0x3d63e656	0.055639587
201	0xbccbf740	-0.024898171
202	0xbda87238	-0.082249105
203	0xbb8e84de	-0.004349335
204	0xbd60aa60	-0.054849982
205	0xbc356bc0	-0.011073053
206	0xbd17070e	-0.036871962
207	0xbdde6e48	-0.10860878
208	0x3e2f3fdb	0.17114203
209	0xbd91f8c4	-0.071275264
210	0x3df224dd	0.11823437
211	0x3ddd307b	0.108002625
212	0x3e48215b	0.19543974
213	0x3dc804f4	0.0976657
214	0x3d86fe3c	0.0659146
215	0xbc69c774	-0.014268745
216	0xbc6bde25	-0.014396225
217	0xbc7ab83e	-0.015302716
218	0x3d4a817a	0.049439885
219	0x3c964404	0.01834298
220	0x3d78f635	0.060781676
221	0x3e69dae1	0.22837402
222	0xbd9f2ecf	-0.077726
223	0xbd5c2ae0	-0.053751826
224	0x3d943a27	0.07237654
225	0xbd953816	-0.07286088
226	0x3d76d2ef	0.060259756
227	0x3d9158a1	0.07096983
228	0x3e156144	0.14587885
229	0xbc5504a4	-0.013001595
230	0xbd10fe4e	-0.035398774
231	0xbdd186ee	-0.10230814
232	0xbdf21e6d	-0.118222095
233	0x3da3180c	0.07963571
234	0x3d994211	0.07483304
235	0x3deae0a2	0.114686266
236	0x3dc4bfcc	0.09606895
237	0x3e0dacfb	0.13835518
238	0x3dd1ebc0	0.10250044
239	0x3ca84cec	0.020544492
240	0x3911608c	0.00013864244
241	0xbd5b2b73	-0.053508233
242	0xbd3f12cc	-0.046648785
243	0x3cbd431b	0.023103287
244	0xbd63c845	-0.055610914
245	0x3d76f7b4	0.06029482
246	0x3d9ede65	0.07757262
247	0xbe251aa6	-0.16123447
248	0xbd90b94a	-0.07066591
249	0xbdf49b7e	-0.1194372
250	0xbd361f86	-0.044463657
251	0xbd06d9c9	-0.03292254
252	0xbdeb2061	-0.11480785
253	0xbd91249c	-0.07087061
254	0xbda79482	-0.081826225
255	0xbca33f4e	-0.019927647
